UNAM/MachineLearning/Sign/best_model.pt (torch_old, 335298 bytes, 10 tensors)

conv1.weight f4 [10, 1, 3, 3]
000000 1f 62 6f be 87 36 30 3e ee da d8 be a6 08 c1 be
       -0.23377274 0.172083 -0.4235453 -0.3770191
000010 cc 70 14 bd 36 c6 bf 3d 8c 02 20 3e 26 d4 11 3f
       -0.036240384 0.093639776 0.15625972 0.5696434
000020 de 77 5e 3d 75 f6 a1 3d 7c e6 e5 bd 71 23 9c bd
       0.054313533 0.07908336 -0.11225602 -0.076239474
000030 d8 1b a5 be 4d e3 69 be d9 d3 13 be 4e 15 5d bb
       -0.32247806 -0.22840615 -0.14436282 -0.0033734622
000040 83 e3 e7 3d 65 96 34 3e fd 1f ca be ca 39 c4 be
       0.11322691 0.17635496 -0.3947753 -0.3832534
000050 5d af e6 3d 31 f1 1b 3e f6 1d 99 bd 10 91 fc 3e
       0.11263917 0.15228726 -0.07476418 0.49329424
000060 fb 2e f1 bd 51 3e 94 3b 0a a9 e7 3e a3 52 9e be
       -0.11776539 0.0045240303 0.45246154 -0.30922422
000070 17 e2 56 be bc d6 ac bd 89 0d 05 be ed 71 93 3e
       -0.20984684 -0.08439395 -0.12993445 0.28797856
000080 11 3f 5d be b1 21 1d be 70 7a 6e be a8 d6 9f be
       -0.21606089 -0.15344884 -0.23288894 -0.31218457
000090 21 8a 1e be 01 93 a8 3e c9 c4 40 3e bf a8 39 3e
       -0.1548238 0.32924655 0.18825068 0.18130778
0000a0 d4 55 48 3c ce 18 2b be b8 d0 4d 3d f6 2b a8 be
       0.012227494 -0.16708681 0.050247878 -0.3284604
0000b0 e8 a9 6a be 54 de b1 be 7b b6 8d 3e e1 c1 7b 3e
       -0.22916377 -0.34739935 0.27678284 0.24585678
0000c0 41 6d 10 be ff 23 05 3e 52 08 a4 3e 45 45 b9 3e
       -0.14104177 0.13002013 0.32037598 0.3618566
0000d0 97 37 0b 3e dc da 2e 3e 8d 4a 5b 3e 28 c3 4c be
       0.13595425 0.17075676 0.21415158 -0.19996321
0000e0 fb 5b 59 3d b7 b3 87 be 7f f5 6e be a8 18 32 be
       0.053066235 -0.265043 -0.23335837 -0.17392218
0000f0 70 b9 11 3e de 08 04 3e 68 58 4b be db 65 06 3e
       0.14230895 0.12894008 -0.19857943 0.13124792
000100 6c a3 88 3e 8d 5e 85 bc b3 2b ad bd 6d d6 a3 3d
       0.2668718 -0.016280437 -0.084556006 0.07999883
000110 c3 5b 82 3e ab ab 87 3e 5d 80 9d be ed 99 56 be
       0.25460634 0.2649816 -0.30761996 -0.20957156
000120 d2 b3 8e 3e 3c 8f cb 3e f5 0b ad 3e d1 1d c1 3e
       0.27871567 0.39757717 0.33798185 0.3771806
000130 9d a0 f1 3d d2 34 c5 be 0d cd 8b bc ec 7e 77 be
       0.11798213 -0.3851686 -0.01706555 -0.2416951
000140 5e 0f f3 be f5 c4 0f 3f 07 e8 c1 3e 2b 8e 0d bf
       -0.47472662 0.5615991 0.37872335 -0.55295056
000150 72 cb 8b 3e ac d3 37 3d b2 ef a2 be fc 93 8b bd
       0.27303654 0.0448796 -0.31823498 -0.06815335
000160 3f a8 b7 3d 93 3a c5 be
       0.08967637 -0.3852125

conv1.bias f4 [10]
000000 03 1b fc 3d 8e 64 2c 3e 36 41 74 3e 06 3b ff 3d
       0.123098396 0.16835234 0.23853001 0.1246243
000010 6b ba a8 be 05 87 5e be d7 5b 2a 3e dc f0 8c 3d
       -0.32954726 -0.21731193 0.16636597 0.06881878
000020 7c 13 86 be a7 72 44 be
       -0.2618674 -0.19184361

conv2.weight f4 [20, 10, 3, 3]
000000 87 35 e3 3d 08 d4 75 3d 8a 92 3c bd 73 25 ce bc
       0.11094194 0.060016662 -0.046038188 -0.025164342
000010 05 21 e6 bd dd 14 05 bd 7b 80 9e bd 3b 50 e9 bd
       -0.11236767 -0.0324906 -0.077393495 -0.11392256
000020 e3 4a ae 3c 6d bd 7f 3c 83 5c 2f bd 2c fc 7c 3d
       0.021275943 0.0156091275 -0.042812835 0.061763927
000030 59 49 83 bd bd 98 c3 3d fc 55 94 3d db 98 b7 bd
       -0.06410474 0.09550617 0.07242963 -0.08964702
000040 54 cd d9 bc 0d 8c 43 3b d5 b4 81 3d a9 26 c8 3c
       -0.026587166 0.0029838115 0.06333319 0.024432497
000050 08 ad ac 3d 47 3e 04 3c 2c c5 7c bb 1c 00 53 3d
       0.084314406 0.008071489 -0.0038569672 0.051513776
000060 52 05 10 be 12 35 5e bd 88 7d a0 3c 1a 50 52 bd
       -0.1406453 -0.05424983 0.019591108 -0.051345922
000070 a1 0a 17 bd ac ef b0 bd e0 aa b7 bc 9f 9d b8 3c
       -0.03687537 -0.08639464 -0.022420347 0.022536097
000080 7f a0 8c bd 83 21 b1 bb 68 8b 9a 3d 91 66 31 bc
       -0.0686655 -0.0054056062 0.07546121 -0.010827676
000090 35 3c 6a 3c ef 91 90 bb da 2d f3 3c 5b f8 c1 3d
       0.014296581 -0.004411928 0.02968495 0.09471198
0000a0 d6 30 dc 3d 0e 6a 93 3d 2e 8c f8 3d 2e 91 bb bb
       0.10751502 0.07197963 0.12136112 -0.005724094
0000b0 bd a5 c3 bd c5 9e 33 3d 72 71 91 3d 2f 66 ce 3d
       -0.095530964 0.043852586 0.07101716 0.10078084
0000c0 8d e1 47 bd 86 41 d6 bd e5 96 00 be f0 9d 13 be
       -0.048799086 -0.10461716 -0.12557562 -0.14415717
0000d0 40 fc d5 bd 80 2d 43 3d bd 20 6a 3d 88 e0 cf bd
       -0.104485035 0.047650814 0.057160128 -0.10150248
0000e0 c2 28 85 3d 90 4c a9 bd ee 24 b9 bc e2 3c 2f bd
       0.065019146 -0.08266556 -0.022600617 -0.04278267
0000f0 77 21 a2 bc 54 bf a0 bc 90 72 c2 bd ea 1a 6d bd
       -0.019791348 -0.019622482 -0.09494507 -0.057886995
000100 cc 59 59 3c d2 9c f3 3c ae 19 9c ba 92 be 50 3d
       0.013266038 0.029737864 -0.0011909509 0.050962992
000110 ab 03 e8 bd e5 20 1e bc 39 34 88 3d f6 7e a1 bd
       -0.113288246 -0.009651397 0.06650586 -0.07885544
000120 67 28 75 3e 5f 1f e0 3d eb ac 84 bd 8d e2 32 3e
       0.23941194 0.109434836 -0.06478294 0.17469235
000130 7a 37 16 bd 05 74 10 bd ec 49 d4 3d e6 e0 f5 bd
       -0.036674 -0.035266895 0.10365662 -0.120057866
000140 68 cd 91 bd 14 60 e2 3d 2f 5e 11 3e 10 dd 5f bd
       -0.07119256 0.11053482 0.14196084 -0.05465418
000150 4d b6 2d 3e b7 c2 cc 3c bb b2 11 bd d9 e9 52 3c
       0.16964073 0.024995191 -0.03557084 0.012873136
000160 dc 24 e8 bd f4 a8 34 3c de 92 ac 3d ee d3 92 3d
       -0.11335155 0.01102661 0.0842645 0.07169329
000170 8d ef 96 bd d4 52 09 ba 1b 2b 99 bd 3e 12 6f bd
       -0.073699094 -0.00052384776 -0.07478925 -0.058367006
000180 44 8e 7f bd 44 66 14 3d 72 50 7f bd bd 80 21 bb
       -0.062391534 0.03623034 -0.062332578 -0.0024643384
000190 f0 13 98 3b eb 40 8b 3d 65 70 a4 bd 28 48 94 bd
       0.0046410486 0.067994915 -0.0802925 -0.07240325
0001a0 4a a9 7a bd 57 16 97 3d 83 19 1b bd 93 68 b6 3d
       -0.061196603 0.07377308 -0.037866127 0.08906665
0001b0 b3 83 0e 3d d1 ec 11 3c 4a b6 ca 3a 05 fe d1 bc
       0.034793567 0.008906559 0.0015465703 -0.025633821
0001c0 eb 35 03 3c e5 bb ce bc f7 eb 06 bc 55 cd 08 3c
       0.0080084605 -0.02523608 -0.008234969 0.008349736
0001d0 ef ea af bd e3 4b 62 bd f3 51 ae 3d f5 31 af bd
       -0.08589732 -0.055248152 0.08511724 -0.085544504
0001e0 dd 05 f8 bb 19 8e d5 3d 65 f7 1b 3d 3e 97 43 3b
       -0.0075690583 0.104274936 0.03807773 0.0029844786
0001f0 0b 15 bb bd 5f e2 55 3d c3 05 9c bd 5f 3d f6 bc
       -0.09134873 0.052217837 -0.076182865 -0.03005856
000200 56 c6 13 bd f4 c2 7a bc 2f dd 0e 3b ea cc b8 3d
       -0.03607782 -0.0153052695 0.0021799316 0.09023459
000210 8e ab 7a 3c 27 d6 ca 3d 03 68 8a 3d 18 13 90 bd
       0.015299691 0.099041276 0.0675812 -0.07034892
000220 a3 11 1a 3d 81 00 9c bd e8 36 66 bd 4a b4 a5 3c
       0.037614476 -0.076172836 -0.056204706 0.02022757
000230 c3 08 01 3d fa e3 81 3d da 5a 32 bd 23 8f 32 bc
       0.031502496 0.06342311 -0.043543674 -0.010898384
000240 3e 49 5e 3d a4 c9 d0 bd da 28 9c 3d 1d a8 b2 bd
       0.054269068 -0.1019471 0.07624979 -0.08723471
000250 30 3c be 3a c6 50 93 bc c7 11 63 bd 30 ba 67 3c
       0.0014513787 -0.017982852 -0.055436876 0.014143512
000260 12 d6 b3 3d d5 92 09 bd be b2 89 bd 11 cc 32 bd
       0.08781065 -0.033587296 -0.067235455 -0.043651644
000270 3d cc d7 bd b4 ce 3e 3d fb a5 54 bd e7 4b 9c bd
       -0.10537002 0.046583846 -0.051916104 -0.07631665
000280 a7 8f 81 bd 7a 2f 6c 3d 73 d9 45 3d 46 a3 99 3d
       -0.06326228 0.057662465 0.04830308 0.07501845
000290 9c 2c f3 3c 3e 75 07 bd da e6 ee bc 11 f9 f7 3c
       0.029684357 -0.033070795 -0.029162813 0.030270131
0002a0 3f 07 a2 3d 07 d4 fa 3c 81 76 4a bd 17 f8 5b bd
       0.07911538 0.03061868 -0.04942942 -0.053703394
0002b0 56 97 cf bd 38 a8 5f 3c dc 59 6c bd ae 61 be bd
       -0.10136287 0.013650946 -0.057702884 -0.09295975
0002c0 28 6b b8 3d cb b7 90 bd 84 3c 22 bc 96 f0 01 3d
       0.090048134 -0.07066306 -0.009902123 0.03172358
0002d0 db 18 d1 ba 29 8a 9e bd db a5 a0 bd 82 7f 93 3d
       -0.0015952842 -0.07741196 -0.078441344 0.072020546
0002e0 ea e1 7e 3c 5f 95 b8 3d 3d 21 4e bd 73 f3 8c 3c
       0.015556792 0.09012865 -0.050324667 0.01720593
0002f0 30 d5 75 3a c3 f9 9d bb 25 79 83 bd 2f 4c 12 3d
       0.0009377776 -0.0048210337 -0.06419591 0.035717186
000300 5c b5 08 3d 48 fa e3 ba 03 5a c0 bc 67 3e 85 bd
       0.033376083 -0.0017393315 -0.023480421 -0.06506043
000310 70 49 95 3d 3f 5f 9b bd 10 f6 28 3c 76 5a 48 bd
       0.07289398 -0.07586526 0.010312572 -0.048914395
000320 dc da 7b bd 27 e4 ca bc 7c ba c3 bd c6 2b de 3b
       -0.061488017 -0.024766995 -0.095570534 0.0067801205
000330 3e 7c df bc 4f a9 b4 bd cc 0b 7e 3d e3 e5 37 3d
       -0.027280923 -0.088213556 0.06202297 0.04489697
000340 29 e7 2a 3d c6 64 59 bc 5d f9 b0 bd f8 1d 85 bc
       0.041724358 -0.013268655 -0.08641312 -0.016249642
000350 ca f0 15 3d e2 8c 1d bd f0 df 23 3d 5a c4 8f 3d
       0.036606587 -0.038464434 0.040008485 0.07019873
000360 84 c4 59 bd a5 b8 b2 bb 0d eb 31 3d 21 09 b6 3c
       -0.053165928 -0.0054541402 0.043437053 0.02222115
000370 3c 38 96 3c e1 fd 15 3d cd 5e 9d bd 73 da 4c 3c
       0.018337362 0.03661907 -0.076840974 0.012503254
000380 89 97 84 3d 89 f3 c4 3d ff b5 30 3d 6c 56 fc ba
       0.064742155 0.09616763 0.043142315 -0.001925183
000390 85 d0 54 3d 9f 8d bf bd 03 e6 05 be dc f7 f3 bd
       0.051956672 -0.09353184 -0.13076024 -0.1191251
0003a0 cd dc 2c 3d 57 db ce 3d 1f 17 95 bd 1a a9 28 3d
       0.04220276 0.101004295 -0.072798006 0.041176893
0003b0 88 81 a0 3d 3c 1b d7 3d 58 77 bb 3d 9d d7 a5 3d
       0.07837206 0.105032414 0.091536224 0.080977656
0003c0 ec c3 c2 bc b9 09 18 bd 26 ef b0 3d dc a3 83 3d
       -0.023775063 -0.037118647 0.08639364 0.06427738
0003d0 ff 4d 77 bd 88 0a ad 3d ae 25 87 3d ba 00 47 3d
       -0.060377117 0.08449274 0.06598984 0.048584677
0003e0 42 7f a7 bd 69 d5 02 3d ad 07 5d bd c9 7d ff 3c
       -0.081785694 0.031941805 -0.0539624 0.031187909
0003f0 25 39 a3 3a 49 6b d5 3c 9d c0 e2 3b 8f 9a 82 3d
       0.0012452943 0.026052134 0.006919934 0.06377136

conv2.bias f4 [20]
000000 99 4b 3f 3d 63 06 f6 3c 30 a1 2f bd 3b f3 ef ba
       0.046702955 0.030032342 -0.04287833 -0.0018306741
000010 0c 17 5b 3c a0 28 5c bd a5 10 23 bc cd 34 58 bc
       0.013372194 -0.05374968 -0.009952699 -0.013196182
000020 3f ce cc bd b7 10 92 3d 4a 79 26 bc c5 9f ba bd
       -0.10000276 0.07132094 -0.0101607535 -0.09112505
000030 6d c1 a8 3d 8c 79 6c bd b4 40 1b 3d 18 20 d8 3d
       0.08240018 -0.057733104 0.037903503 0.105529964
000040 24 a1 9f 3b 72 59 f7 3c 0e 08 2b 3d 57 e3 a3 3d
       0.0048715044 0.030194018 0.04175573 0.08002346

conv3.weight f4 [30, 20, 3, 3]
000000 75 74 64 bc f2 66 03 bd 63 ab 8c bb af 99 00 3d
       -0.013943781 -0.0320806 -0.004292892 0.031396564
000010 7c b4 e5 bc e4 bc 1d 3d db 6c 38 bc 8a c9 f6 3c
       -0.028040163 0.03851022 -0.011256422 0.030125398
000020 99 9c 74 bc a1 20 00 3b 6a 7d 92 bd f0 91 85 bd
       -0.014929914 0.0019550698 -0.07152827 -0.06521976
000030 ca f7 ce 3b ad c7 15 3d 15 ef 50 3d ed c8 5c 3b
       0.00631616 0.03656738 0.051009256 0.0033689097
000040 21 72 f9 3c a1 18 f8 3c 1a 79 74 bd 48 c8 68 bd
       0.030449929 0.030285181 -0.059685804 -0.056831628
000050 46 af 81 bd de 21 f0 bb de 9e 65 bd 4f 70 1b bd
       -0.06332259 -0.007328256 -0.05605971 -0.037948903
000060 6c 0e 93 bb 83 d6 e0 3c 97 72 88 3c 53 f9 d1 3d
       -0.004487803 0.027446037 0.016656203 0.10252633
000070 23 61 ad bb 57 38 ae bd 4a 8b 10 bc 37 54 77 bd
       -0.0052911206 -0.0850684 -0.008822272 -0.060383048
000080 93 7e 4b 3d 0f 02 ea b8 15 44 48 bd 9d f1 e0 bd
       0.049681257 -0.00011158373 -0.048893053 -0.10983584
000090 91 b6 60 3d f2 7e ad bc ec 32 e6 bc 17 b3 4e 3d
       0.05486161 -0.021178696 -0.028100453 0.050463762
0000a0 4a 73 8c 3d d6 bc 5d bb 9f c7 56 bd 26 83 7a 3d
       0.06857927 -0.0033834479 -0.052436467 0.06116023
0000b0 6b c9 ce bc 7c 15 c5 3c 15 17 74 bd 9c fc 9e bb
       -0.025242528 0.024058096 -0.059592325 -0.0048518907
0000c0 7b ab fc 3b d3 29 26 bd fd 4d 88 bd 37 a7 0c 3d
       0.0077108718 -0.04056723 -0.066555 0.034339156
0000d0 33 96 3d 3c 1b 55 8e bd a8 19 06 bd 3a ed 6f bd
       0.011571455 -0.06949826 -0.03273931 -0.058575846
0000e0 7a 39 de bc ba 2f 99 3d bd c9 15 bd 4e 01 f9 bc
       -0.027127016 0.07479806 -0.036569346 -0.03039613
0000f0 c2 c1 24 bd 48 51 8e bd 7f 22 4f 3c 8c 34 ec 3c
       -0.040223844 -0.06949097 0.012642502 0.02883365
000100 78 97 e0 3c 1a 92 0f bd 33 91 a2 3d 69 96 5f bc
       0.027415976 -0.035051443 0.07937851 -0.0136467
000110 e2 e2 ac 3c 5e 2e ba 3d 47 b0 20 bd a8 fd f9 bc
       0.02110428 0.09090875 -0.03923061 -0.03051646
000120 d0 c4 83 3d b2 9e c8 bd d6 02 f7 bc 08 16 c5 3d
       0.064340234 -0.09795894 -0.03015272 0.09623343
000130 44 88 1e 3d 1a 34 f4 3b d2 71 02 3c 04 af 8c 3d
       0.03870417 0.0074525 0.007961707 0.06869319
000140 9b 75 85 3c 34 e6 55 3c 46 2f 35 3c 6b f0 1c 3d
       0.01629143 0.013055373 0.011058634 0.038315218
000150 ef c7 3f 3d 9c ce fb bc af ad 0c bc ad de 07 3d
       0.04682153 -0.030738167 -0.008586331 0.033171345
000160 92 dd 11 bd 4a 8a 8d 3d b4 06 0c bd 74 13 6c 3d
       -0.035611697 0.06911142 -0.03418608 0.05763574
000170 d8 87 5d 3d 20 2b c9 3c 3d b7 e4 3c 3c c7 2b bc
       0.05408463 0.024556696 0.027919406 -0.010484513
000180 1d d2 cc ba 04 56 11 3d bf 37 b5 bd 56 f9 4d bd
       -0.0015626583 0.03548242 -0.08848523 -0.050286613
000190 25 1a 82 bd 01 ed 3b bd 80 8f fd 3a 9f 6f 0a bd
       -0.06352643 -0.04588032 0.0019345134 -0.033797856
0001a0 14 08 88 3c 11 d4 24 3b e1 16 7e 3d 35 60 04 bd
       0.016605414 0.0025150815 0.062033538 -0.032318313
0001b0 3b 37 b5 3c d9 6b e4 3c 34 94 80 bd 7c 39 b4 3d
       0.022121063 0.027883457 -0.062782675 0.08800027
0001c0 fc 26 07 bd 37 b1 ff bb 4c cb c1 3b d4 6e 0c 3d
       -0.032996163 -0.007803108 0.0059141275 0.03428538
0001d0 4d a2 c9 3c 4b 7e 21 bd 91 5e 7a 3d 10 a1 27 bd
       0.024613524 -0.039427083 0.06112534 -0.040925086
0001e0 a0 06 21 3c 46 35 45 3d 6b 28 86 3d 3d 5f cf 3d
       0.00982824 0.04814651 0.06550678 0.10125587
0001f0 98 b8 11 3d e8 bb 93 3c 80 af aa 3d c7 84 c4 bd
       0.035576433 0.018033937 0.08334255 -0.09595638
000200 d2 c9 0a be a5 45 6d bc 2e 7a bb bc 50 fa 8c bc
       -0.13553551 -0.014481937 -0.022885408 -0.017209202
000210 03 bf 20 3d f5 99 8d bb 8e 30 88 bd 02 53 0c 3d
       0.039244663 -0.0043213316 -0.06649886 0.03425885
000220 2e ed 18 3d c6 09 b4 3d 96 d7 46 bd 41 a2 2d bc
       0.037335567 0.08790927 -0.048545443 -0.010597766
000230 cf 24 77 bd 1e 9d f9 3c 31 36 a6 3c 98 15 6c 3d
       -0.060337838 0.030470427 0.020289512 0.05763778
000240 d1 8d 9a 3c 8d 10 91 3d ba a4 98 bd 6b 9e e5 bc
       0.018866451 0.07083235 -0.07453294 -0.028029641
000250 da fb 48 bd 95 8d 1b bd 0d b4 5a 3c 11 1a 3d 3d
       -0.04906831 -0.03797682 0.0133485915 0.046167437
000260 32 4c 7c bd 45 f9 3f 3d b8 71 7c 3d 59 13 1b bd
       -0.061596103 0.04686858 0.06163189 -0.03786025
000270 a6 a6 50 3c d2 22 1e bd 0a 31 84 3c 4c f2 0e bd
       0.012735045 -0.038607426 0.016136665 -0.03489904
000280 7c 25 f2 bc b8 a1 53 bd 5c c9 7e bd f1 64 73 3d
       -0.02955889 -0.0516679 -0.06220375 0.059422437
000290 ad 46 20 bc f0 13 0f bb 3d 81 1a bd 84 6d 51 3d
       -0.009782475 -0.0021831952 -0.037720907 0.051129833
0002a0 91 96 2e bd 93 92 f8 bc c5 b2 6e bd 3e 88 8b bd
       -0.04262406 -0.03034333 -0.058275957 -0.068130955
0002b0 48 77 9b 3c 8b 05 b5 bd 35 d7 d1 3a ef 3a 92 bb
       0.018977776 -0.08838948 0.0016009571 -0.004462592
0002c0 62 fc e7 3c cc 16 74 3d 6e 76 67 bd 6f cf 46 3d
       0.028318588 0.059592053 -0.056509428 0.048537668
0002d0 f2 11 39 bd fb 27 c5 bb e6 d8 c2 3b 0c 6d 49 bd
       -0.04518313 -0.006016729 0.0059462665 -0.04917626
0002e0 45 8e 7c 3d 32 61 7b 3d 40 ed 94 bc 05 06 bf bc
       0.061659116 0.06137199 -0.018179536 -0.0233183
0002f0 ee 29 96 bc 6b 98 3f 3d 82 9c 62 3c f3 c9 9d bc
       -0.01833054 0.046776216 0.01383126 -0.019261336
000300 e5 cb 4d 3b 40 ab 86 3d a9 b0 bf 3b 61 bd 6f bc
       0.0031402048 0.06575632 0.005849917 -0.014632554
000310 da e6 83 bd 38 65 27 bd 6b 96 17 3d 86 54 63 3a
       -0.06440516 -0.040868014 0.037008684 0.0008671958
000320 c2 cd 9a 3c df 66 3c 3c 5d 04 5a bd 47 7f b6 bc
       0.018896941 0.011499136 -0.053226817 -0.022277487
000330 c4 14 73 bc a2 cf 78 3c 9a bc a8 3b 4a 40 4d 3d
       -0.014836494 0.015186222 0.005149436 0.05011014
000340 75 e4 7e 3d f1 4f 46 bd 75 ab 92 3b 41 28 b5 bc
       0.062229592 -0.04841608 0.0044760057 -0.022113921
000350 ab 00 e7 bd bc 2f a7 3c 77 77 81 bd f3 c4 ad 3d
       -0.11279424 0.020408504 -0.06321614 0.08484831
000360 21 84 77 3d 97 84 82 bd 2a 76 7f 3d fd c4 0e 3d
       0.060428742 -0.06372946 0.06236855 0.03485583
000370 76 5c 48 bd 48 28 92 3d bc 28 84 bd 6c 07 4e bd
       -0.048916303 0.07136589 -0.06453082 -0.050300047
000380 c6 e0 17 bd 2e df 32 b9 24 db f4 3a 63 b7 e6 3c
       -0.037079595 -0.00017058544 0.0018681032 0.028163617
000390 b0 00 ba bd b8 f6 5e bc 6d fa 8c 3d fa 9b 00 3d
       -0.090821624 -0.013608627 0.068837024 0.03139875
0003a0 9f b3 1b 3d 44 8a 06 bd 6d a4 cb bb 12 20 8e bd
       0.038013097 -0.032846704 -0.0062146694 -0.06939711
0003b0 84 0c d9 bc b2 97 10 bd c1 b3 1a bc 37 8e 36 bd
       -0.026495226 -0.035300918 -0.009442271 -0.04456922
0003c0 3e 1b 7d 3d e9 79 1f bc c0 14 9a bd a4 44 99 3d
       0.06179356 -0.0097336555 -0.07523489 0.07483795
0003d0 51 d6 5a bd e3 36 7f bc 25 25 90 3d 32 6b 68 3d
       -0.053427044 -0.015577051 0.07038335 0.056742854
0003e0 ad 14 15 3c 2f 74 62 b9 d4 1c e6 bd cf 4b 7d bd
       0.009099168 -0.00021596321 -0.11235967 -0.061839875
0003f0 4d d9 cc 3d 61 2f ac bd 0e 0c 5c bd 40 a5 d6 3d
       0.10002384 -0.08407474 -0.053722434 0.10480738

conv3.bias f4 [30]
000000 39 8b 36 bd 10 b7 6c bd d6 ec 59 3b 30 21 22 bd
       -0.044566367 -0.05779177 0.0033252737 -0.03958243
000010 2c 73 de ba ac b6 6b bd 66 29 83 bd b1 b2 02 bc
       -0.001697158 -0.057547256 -0.064043805 -0.007977174
000020 44 e5 16 3c 12 ba 5f 3d 2b a8 d1 bc ee 33 8f 3d
       0.009209935 0.05462081 -0.025592884 0.06992327
000030 4d bf 59 bd c9 4d d5 3c b7 1d 8a bd 5c d4 89 3d
       -0.053160954 0.026038067 -0.06743949 0.067299575
000040 47 b3 e6 bc 49 78 25 3d 7f 38 4d 3b bd 8e f8 bc
       -0.028161658 0.040397916 0.0031314192 -0.0303415
000050 c4 3f 96 bc f7 fe e1 bc 49 a7 43 3d 8f a0 5e 3d
       -0.018340953 -0.027587397 0.047766957 0.05435234
000060 ae 6b 93 3d 97 80 90 bc a3 21 b5 bc 74 5c 12 bd
       0.07198273 -0.017639441 -0.022110766 -0.0357327
000070 e3 17 ab bb f8 23 98 3c
       -0.0052213534 0.018571839

fc3.weight f4 [256, 270]
000000 3e 31 3b 3c 1e 9e 04 bd ec e5 2e 3c 79 a2 95 b9
       0.0114253145 -0.032377355 0.010674935 -0.00028540546
000010 47 81 4c bd f2 61 f2 bc 44 1e 61 bb 0e c5 49 bd
       -0.049927976 -0.02958772 -0.0034350315 -0.04926019
000020 c7 31 d5 3b a8 8c 7b ba 55 8b b8 bc f1 74 d4 bb
       0.006506178 -0.00095958496 -0.022527376 -0.006483667
000030 0d 1e ce ba f8 4f 9b 3c 8b 59 1a bd 89 ce 31 3c
       -0.0015725509 0.01895903 -0.03768305 0.0108524645
000040 17 7a 64 3d 06 c7 f2 3c 3d 78 01 3c 38 17 75 bd
       0.055780496 0.029635917 0.007902202 -0.059836596
000050 1e 5b 46 bd 82 83 03 3b 8d b3 e4 bc 43 dd 50 3d
       -0.04842674 0.0020067398 -0.027917648 0.05099226
000060 cf 54 90 bc d7 3d 34 bd 76 90 53 3d 5e b2 2f bd
       -0.017618565 -0.044004288 0.05165144 -0.042894714
000070 df 37 fa 3c 2d f3 62 bc 96 9b d0 3c 71 e2 1a bd
       0.03054422 -0.013851923 0.025464814 -0.037813608
000080 34 25 60 3d 3a 47 34 3c f1 b0 d1 bc 38 c0 df bc
       0.05472298 0.01100331 -0.025597068 -0.027313337
000090 40 b9 2d 3c bb 80 6a bd 65 5b 37 3d 85 12 08 3d
       0.010603249 -0.057251673 0.044764895 0.033220787
0000a0 93 38 56 3d 3e ab 5d 3d 19 d8 14 bd 3f 16 8e bc
       0.052300047 0.054118387 -0.0363389 -0.017344592
0000b0 8e 33 19 3d af 2d 4c 3d c5 88 85 3d 8b 0e 59 bc
       0.037402682 0.049848255 0.06520227 -0.013248096
0000c0 c1 ef a4 3b b3 14 0e bc f2 71 e8 3c bc 97 0c bd
       0.0050334637 -0.008671927 0.028374646 -0.034324393
0000d0 98 54 53 3d 14 84 0e bd f6 16 38 3d 23 1b 6d 3d
       0.051594347 -0.03479393 0.044943772 0.057887208
0000e0 35 0d 11 bd 4e e5 84 3c c6 41 7d bd 7d 5f 3f 3d
       -0.035412986 0.016222622 -0.061830305 0.046721924
0000f0 da e0 f9 3c 64 84 7c bb f6 c5 1e 3b 23 99 09 bc
       0.030502725 -0.003853106 0.002422688 -0.008398327
000100 82 36 23 3d e0 ed 20 bd 03 71 1c bd bb 65 99 3d
       0.039846905 -0.039289355 -0.038193714 0.07490107
000110 c0 93 34 3d 9a 46 5d bc e1 30 ec bc dd e5 5b 3c
       0.044086218 -0.013505602 -0.028831901 0.013421503
000120 27 30 7c 3d dc 40 5d 3d b8 88 3e bc f7 80 14 3c
       0.06156936 0.054016933 -0.011629276 0.009063951
000130 fa 69 3c 3d c9 e3 e2 bc e8 c8 4c 3c c5 23 18 3d
       0.045999505 -0.027696507 0.012499072 0.037143487
000140 21 25 20 3c c7 22 1a 3d 93 7d 82 bb 45 fc 8f bd
       0.009774477 0.037630823 -0.003982255 -0.070305385
000150 15 33 58 bd 0b 98 88 3d ef 83 fb bc 87 83 08 bd
       -0.05278309 0.06669625 -0.03070256 -0.03332856
000160 3a c7 87 3d b0 ad 50 bd b9 9a 4a 3d d0 e1 5d 3d
       0.06629796 -0.05094689 0.04946396 0.05417043
000170 a6 36 00 bc d8 2d 11 3d 1b ab 3f 3d 1d 35 69 bd
       -0.007825529 0.03544411 0.04679404 -0.05693542
000180 e1 21 05 bd 85 79 02 3c 24 e8 9e 3c a4 ab 03 bd
       -0.032503013 0.007963543 0.019397803 -0.03214611
000190 02 85 26 bd bf e1 76 3d a4 e8 4e bc 7d aa 2a bd
       -0.04065419 0.060273882 -0.012628708 -0.041666497
0001a0 11 31 03 3d 57 0f b9 bc 37 97 86 bc 40 49 ac 3a
       0.032029215 -0.022590322 -0.016429527 0.0013144389
0001b0 2b fb 75 3d 67 fc f4 3c 7c 97 88 3d ec ea be bc
       0.060053986 0.029905511 0.06669518 -0.023305379
0001c0 5d e4 e4 3c a6 89 80 bd 54 71 01 3d 4d dd 03 bc
       0.027940923 -0.06276254 0.03160222 -0.008048368
0001d0 1f 86 d0 ba 42 8f 54 3d 96 fa cc ba b3 d7 93 bc
       -0.0015909112 0.051894434 -0.0015638645 -0.01804719
0001e0 ea 82 fe bc 9c 90 22 3c e7 2b c5 bc 07 d9 fd 3c
       -0.031068284 0.009922173 -0.024068786 0.030987276
0001f0 aa 53 70 bd ce 8c 77 bd bd 2c 59 3d 3c 7b bf bc
       -0.05867354 -0.060437016 0.05302118 -0.023374192
000200 50 0b 75 bd 3c 51 33 3d 91 92 86 bc ee f5 2a 3a
       -0.05982524 0.043778643 -0.01642731 0.0006521632
000210 64 c8 1b 3d eb fe a6 3c c3 7c 6e bd c0 e1 32 3c
       0.038032904 0.020385226 -0.05822445 0.010918081
000220 56 86 71 3d 90 72 66 bb ba 45 35 3d d8 61 5a 3d
       0.058966003 -0.00351635 0.04425595 0.053315967
000230 b8 ba b7 3c 26 67 66 bd 52 d9 55 3d 7e e1 44 3d
       0.022427902 -0.056250714 0.052209206 0.04806661
000240 f7 c4 9a 3c 2c 63 a3 bb 50 00 2b bd c9 a1 4d 3c
       0.018892748 -0.0049861874 -0.041748345 0.01255078
000250 00 a0 ae bc 92 35 5a 3d ef 71 7b bd b3 3d 50 3c
       -0.021316528 0.053273745 -0.061387952 0.012710023
000260 db 3f b8 ba 85 4c 0d 3d 77 80 3a 3d 27 3f a6 3d
       -0.0014057116 0.034496803 0.04553267 0.08117514
000270 3f 9b a5 bd b7 6e a0 3c 1c 99 f9 bc 6d 88 95 3c
       -0.080862515 0.019584043 -0.030468516 0.01825353
000280 aa bf 02 bd 44 55 d4 bc 8c ba 23 3d 82 f5 d9 bc
       -0.031921066 -0.025919564 0.039972827 -0.026606325
000290 bb cc 45 bd d2 0f ca bc 32 6e 68 3d cd 51 4a bd
       -0.04829095 -0.024665747 0.056745715 -0.049394418
0002a0 0f e7 2f 3d 03 1c aa bc a6 c1 ae b8 cc ac cb 3c
       0.042944964 -0.02076531 -8.3330364e-05 0.02486267
0002b0 d7 88 ad bc 19 b4 2a bd 81 4c a9 3c f7 e9 16 3d
       -0.021183414 -0.04167566 0.020666363 0.03684422
0002c0 33 a2 ba 3c c1 80 33 bb 6d f8 d2 3b 61 0e d8 3c
       0.02278242 -0.0027389976 0.006438306 0.026374044
0002d0 ab 4c a3 3c 59 b4 f9 bc f6 ea 31 3d 34 ba 28 bc
       0.01993402 -0.030481504 0.043436967 -0.010298301
0002e0 0a fb c2 bc c6 04 98 bc ab e1 0a 3c 1c 36 f9 bc
       -0.023801345 -0.018556964 0.008476655 -0.03042131
0002f0 43 86 36 bd e5 c6 2b 3d c7 52 62 3d 90 cd 1f bd
       -0.044561636 0.041937727 0.055254724 -0.0390144
000300 e5 36 a6 3d 4e 2e 0c bd 61 5a 10 3d fd 78 f5 3c
       0.08115939 -0.034223847 0.035242442 0.029964918
000310 49 bd 57 bd 76 2a 89 bd 89 98 c1 3c 6d 66 63 bd
       -0.05267075 -0.06697552 0.023632305 -0.055517603
000320 5e bf 3e bd 5c 78 5a bd a5 f6 e0 3c ff cc 28 3d
       -0.04656922 -0.05333744 0.02746136 0.041211125
000330 3f 52 81 3c 0d fd 15 bc f5 86 8e 3d ed 8a 42 3d
       0.015786288 -0.00915457 0.06959335 0.04749577
000340 86 98 07 bd 6a 9c 0e 3d fd c4 64 bc 93 b3 a0 3c
       -0.033104442 0.034817137 -0.013962981 0.019616878
000350 c2 ad da 3b 33 65 da 3c 31 83 fc bc ef d5 ef bc
       0.0066735456 0.026659584 -0.030824276 -0.029276816
000360 89 fa 23 bd 6d 71 61 bd 84 fb f5 bc 61 83 cf 3c
       -0.04003385 -0.055039812 -0.030027159 0.025331201
000370 17 22 15 3d 20 81 4e 3c 0a 74 50 3d a2 c5 08 3d
       0.036409464 0.012604028 0.050891913 0.033391602
000380 04 ca 99 3d df ab 6b 3d 5d 51 5b 3c 6e 02 65 bc
       0.075092345 0.057536956 0.013386098 -0.01397763
000390 37 af 8d bb 56 cf eb 3c 20 c7 7c 3c 94 96 e0 bc
       -0.0043238658 0.028785389 0.0154283345 -0.027415551
0003a0 95 a9 82 3d 57 55 20 bc d4 71 01 3d 43 e3 b7 3c
       0.063800015 -0.009785972 0.031602696 0.022447234
0003b0 e8 fb 7b bc 56 f1 cb bc 35 3a 12 bd a5 bb 20 bd
       -0.015379883 -0.024895351 -0.03570004 -0.03924145
0003c0 32 c1 c3 3c cf 92 a0 3d 52 d2 85 bb ce d7 05 bd
       0.023895834 0.078405015 -0.00408391 -0.03267651
0003d0 5f 22 1e 3d 28 5c e8 bc 0d 1c ff bc 6e 8d 6e bd
       0.038606998 -0.028364256 -0.031141305 -0.058240347
0003e0 b1 48 08 3d f3 e7 34 3d 5a 25 6b 3d 93 e2 58 bd
       0.03327245 0.044166517 0.057408668 -0.052950453
0003f0 92 05 62 3c 8f 7d 81 3c 20 5e 20 3c ac ff 75 3c
       0.013795273 0.015806941 0.009788066 0.01501457

fc3.bias f4 [256]
000000 b2 eb 8a ba 3c 75 20 bd 68 45 73 bd e0 1c 4b bd
       -0.0010598807 -0.039174303 -0.059392363 -0.049588084
000010 de 1c 57 3d 0d c2 39 bd 87 b3 3e bd 33 3d 85 bc
       0.052517764 -0.045351077 -0.04655793 -0.016264534
000020 dd f3 d5 3b d9 6f 31 bd 1b dd 43 bd ae ac 60 bd
       0.006529315 -0.043319557 -0.047818284 -0.05485218
000030 31 6e 6e bd 56 0b 17 bd 7a a4 48 3c ba 37 5b 3d
       -0.058210555 -0.036876045 0.0122462455 0.053519942
000040 eb 93 3f 3d 41 6d 37 3d de 7f b4 3c 59 6e 5d bd
       0.046771925 0.044781927 0.022033628 -0.054060314
000050 62 90 01 3d eb a3 25 bd 6f db ae 3c f1 d1 44 bd
       0.031631835 -0.040439527 0.021344868 -0.04805178
000060 1e d0 37 bc a9 ae b2 3c 0d ad 76 3d 6e 87 ea bc
       -0.011219053 0.0218118 0.060223628 -0.028629031
000070 82 94 8f bb e0 1c b2 3c 82 bd 60 3c 41 95 63 3d
       -0.004381717 0.021742284 0.013717057 0.05556226
000080 46 b3 3b bc 3d 85 87 bc 68 58 53 3d 36 79 aa bc
       -0.011456316 -0.016543025 0.051597983 -0.020809751
000090 2a bc 4d 3d 52 6d ed 3b eb ec 2f 3c b4 07 29 3b
       0.050228275 0.007245698 0.010737638 0.0025791945
0000a0 1e dd 4f bd de fe ab bc 73 36 47 3d ac 89 2e 3d
       -0.050747983 -0.020995554 0.04863591 0.042611763
0000b0 94 c1 6f 3d 0b fe 58 bd 18 fb b0 bc c1 0c 57 bc
       0.05853422 -0.05297665 -0.021604106 -0.013125599
0000c0 a9 a9 06 3d f9 cc 15 3d 30 65 29 3d 21 75 02 bb
       0.032876644 0.03657243 0.041356266 -0.001990624
0000d0 81 ea 12 3d 33 50 32 bc 0a 0f 3e 3d 14 78 43 3d
       0.03586817 -0.010883379 0.04640106 0.047721937
0000e0 76 44 10 3d f2 13 83 3b fd f6 9b 3b 7e a8 22 3d
       0.03522154 0.0040001804 0.004759668 0.039711468
0000f0 60 6d 75 bd 6d 16 56 3d 0c d3 02 3d a6 83 17 3d
       -0.05991876 0.05226748 0.03193955 0.036990784
000100 ca 63 81 ba ba 8c 82 bc 63 3a d8 3c 61 7c 83 3c
       -0.0009871658 -0.015936244 0.026395028 0.01605052
000110 ad e5 f7 bc f8 e8 54 3d a8 21 5c bd da e3 14 bd
       -0.030260885 0.05197999 -0.053743035 -0.03635011
000120 fd a3 1e bd 93 dc 0f 3d ba be 2c 3d ff b8 64 bd
       -0.03873061 0.035122465 0.04217408 -0.05584049
000130 df 80 cf bc 5f 81 56 bb 66 a8 b5 bc 24 09 92 bc
       -0.025330005 -0.003273092 -0.022175025 -0.017826624
000140 5c 61 82 bc b3 8a 82 3c 67 b1 00 3d 5b f7 54 3c
       -0.015915565 0.015935278 0.031419184 0.012998427
000150 59 fe 66 bc 94 eb 67 3c 1b 6c 0c 3d 91 d4 f3 3c
       -0.014098727 0.014155287 0.034282785 0.029764445
000160 7e 48 6a 3d 52 4c 1a bd c9 cb 67 3d 7e 62 9a bc
       0.05719804 -0.03767044 0.05659083 -0.018845793
000170 6d 17 1a bc 88 d9 1e 3d bc 0c 50 3d a6 94 0b 3d
       -0.009404999 0.038781673 0.050793394 0.03407731
000180 90 c1 5c 3d 56 06 11 3d ac ad 6c 3d 27 08 6c bd
       0.053895533 0.035406433 0.057782814 -0.057624962
000190 db d8 76 3d 93 68 da bc f0 94 98 bc 32 88 8d bc
       0.060265403 -0.026661193 -0.018625706 -0.017276857
0001a0 c7 4c 3f bd 0d c5 73 3d 8c 9d 14 3d 81 f4 ca 3c
       -0.04670408 0.059514094 0.03628306 0.024774792
0001b0 6c 0d 75 bc 28 11 71 3d d5 d3 01 bd 69 a0 c5 3c
       -0.014956813 0.058854252 -0.03169616 0.024124341
0001c0 91 37 78 bd 66 3a 03 3d 25 43 b9 bc 6f 0e 3d 3c
       -0.060599867 0.032038115 -0.022615025 0.011539086
0001d0 72 1f c0 bc 9a 38 5b 3d 36 a4 26 3d 10 df ce bb
       -0.023452494 0.053520776 0.040683948 -0.006313212
0001e0 5c 07 15 3c d5 1e 37 bd a1 0b 02 ba c1 57 fd bc
       0.009095993 -0.044707138 -0.0004960839 -0.030925633
0001f0 bc 41 e3 bc 9d 2e 66 bd 13 19 4f bc b8 7f ee 3b
       -0.027741306 -0.056196798 -0.0126402555 0.007278409
000200 7c 21 32 bc 24 dd 2e 3c 44 7f e0 bc 53 fb 50 bc
       -0.010872241 0.010672841 -0.027404435 -0.012755233
000210 e6 be 3d bd 20 df 0d bd 31 13 c3 bc 2c 1b 3a 3d
       -0.046324633 -0.034636617 -0.023812862 0.04543607
000220 7b 95 e9 3c 44 b4 c9 bc cf ee 5b bd 09 99 17 3c
       0.02851366 -0.02462209 -0.053694542 0.009252795
000230 5d d6 79 3c d8 58 54 bd fb 4e 3d bd a3 52 59 bd
       0.015248862 -0.05184254 -0.0462179 -0.053057324
000240 bb 3a 58 3b 7a cf 4c 3d 53 32 66 3d fd ec 8d bc
       0.003299399 0.050002553 0.056200337 -0.017324919
000250 95 d2 e6 bc a0 09 06 bd ac e5 fe bc 78 6c 69 bd
       -0.028176585 -0.032724023 -0.031115375 -0.05698821
000260 47 8b 3e bd 78 7c bc bb e1 56 e5 bb db 8a 1e 3c
       -0.046519544 -0.0057521425 -0.006998882 0.00967666
000270 30 4c 31 3d 4e a7 17 bd 78 ca 11 bc 47 b3 36 bd
       0.04328555 -0.03702479 -0.00889837 -0.044604566
000280 ab 2d 6e 3d 9f 6b 9a bc c8 86 fd 3b 14 c6 fc 3c
       0.05814902 -0.018850146 0.0077370144 0.03085617
000290 1b 76 6d 3d 1a 41 58 3d 8f a9 07 bc 0e 4d 43 bd
       0.057973962 0.05279646 -0.008280172 -0.047680907
0002a0 22 51 33 3c b2 46 08 bd 26 37 62 3d 08 aa 0e bc
       0.010944637 -0.033270545 0.055228375 -0.008707531
0002b0 4d b8 32 3d 0a 95 06 3d 4a 46 e8 bc 80 1d 66 3d
       0.043632794 0.03285698 -0.028353829 0.056180477
0002c0 2a a0 85 3c e5 3e 2d bd 27 b1 38 bd 46 c7 4f 3d
       0.016311724 -0.04229631 -0.04509082 0.05072715
0002d0 28 1d 3d bc f1 10 bb bc 8c 13 1b bd 79 77 20 3d
       -0.011542596 -0.022835227 -0.03786044 0.039176438
0002e0 23 0f 81 bc 85 91 fb bc a5 78 89 bc 27 90 84 bc
       -0.015754288 -0.030709038 -0.01678116 -0.016182018
0002f0 be 3f e8 bc 8b d8 7c 3c 9b 65 3f bd 84 d0 e5 bc
       -0.028350707 0.015432487 -0.046727758 -0.02805353
000300 90 4f 51 3d 0f d6 88 bb f5 a6 32 3d ad e9 72 bd
       0.051101267 -0.0041759084 0.043616254 -0.05930488
000310 f7 51 37 3a bf 9b 72 3d 65 1e 46 3d 12 f9 fb bc
       0.000699311 0.059230562 0.04836883 -0.030758414
000320 ac 7f a6 bc b7 b2 48 bd 44 c6 7c bc 70 f1 69 3d
       -0.02032455 -0.04899856 -0.01542813 0.05711502
000330 66 1f ba bc 55 12 be 3a 5f 34 4c 3d 46 c8 33 3d
       -0.02272005 0.0014501313 0.049854632 0.043892168
000340 51 02 1b bb eb 5a 94 39 da 20 4b 3d 4f f5 48 3d
       -0.0023652504 0.000282965 0.049591877 0.04906207
000350 c8 99 e4 bc 37 8f c6 bc 6e 6a 35 bd e7 c0 0c 3d
       -0.02790536 -0.024238212 -0.044290952 0.034363654
000360 6d b2 3e bd 98 11 50 3d 77 ac 43 3d b9 fc 30 3d
       -0.04655688 0.05079803 0.047771897 0.043209765
000370 cc 33 7c 3d 95 8a 26 3c a8 0a 0b bc 52 35 d6 bc
       0.061572835 0.0101648765 -0.008486427 -0.026148472
000380 22 c6 5e bd c1 16 f7 3b 06 e1 40 bd 4d 1b 06 3c
       -0.054388173 0.0075405543 -0.0470896 0.00818522
000390 57 38 27 bd 21 7e 6c 3d 62 d2 8f 3c dd 3f f7 bc
       -0.040825214 0.057737473 0.017556373 -0.03018182
0003a0 42 ec bf bb 5e 9e 58 bb ab df 0e 3d cd 99 e2 3a
       -0.0058570215 -0.0033053379 0.034881275 0.0017288268
0003b0 cd 70 29 bd 9e a6 68 bd 6a cd 73 3c bd 84 1f bd
       -0.04136734 -0.056799524 0.0148805175 -0.03894495
0003c0 2b 5d 88 bc 5a 3f c5 bc 52 11 dd 3c de ba 28 3b
       -0.016645988 -0.02407806 0.026985798 0.0025746147
0003d0 2e f9 21 3d 0f f5 dc 3c 11 e1 fb bb bc f9 c0 bc
       0.039544277 0.026972322 -0.007686742 -0.023556583
0003e0 2f da 4b bb 4a 0c 0c bd 2c ad 4e bc d9 29 3b 3d
       -0.003110539 -0.034191407 -0.01261453 0.045694206
0003f0 11 80 59 3d 7b 3b e7 3c 0c 0e 23 bd 9d 2d e6 3c
       0.05310065 0.028226605 -0.039808318 0.028097922

fc4.weight f4 [26, 256]
000000 ce a3 dd 3c 51 2e 82 bc 1d e7 19 bc 99 e2 66 3c
       0.027055647 -0.015891226 -0.009393481 0.014092111
000010 f0 f0 17 bd f1 82 92 bb 11 2f 91 bc af e5 ea bd
       -0.03709501 -0.004471176 -0.017722638 -0.1146959
000020 c6 e1 aa bc 34 c7 61 bd 6c 4c 1e bd b9 4d 35 bd
       -0.02085961 -0.055121616 -0.0386471 -0.044263575
000030 3e 6c 82 bc f7 8a 8c 3d ae 79 c6 3d ed dd 1b bd
       -0.015920755 0.06862443 0.09691177 -0.03805344
000040 cf 52 81 bd 8e 4a 64 ba a8 cb cb 3d e1 0c 07 3d
       -0.063146226 -0.0008708619 0.09950954 0.032971267
000050 f4 57 00 be 46 fa 6d 3d 5c 4d 4c 3c e3 e5 06 bd
       -0.12533551 0.058100007 0.012469616 -0.03293408
000060 d0 c0 d2 bb 91 03 d5 3c 09 ec ef bc 59 92 9a bd
       -0.0064316764 0.026002677 -0.029287355 -0.07547445
000070 a3 02 f7 3c 9b b5 4e 3d 20 55 8d 3c 93 f3 ed 3c
       0.030152624 0.05046616 0.017252505 0.02904681
000080 a7 28 15 bc 50 9b 91 bd dd b5 47 3c 00 af 49 bd
       -0.009103931 -0.07109702 0.012189356 -0.04923916
000090 c2 f5 c1 3d 41 51 79 3b 3b a7 11 3d a2 20 82 3d
       0.09470703 0.0038042816 0.035559874 0.063538805
0000a0 6a 3c 52 3c f1 0b 3d bd 42 77 1a 3d 5c c2 20 bd
       0.012831787 -0.046153966 0.03771139 -0.039247856
0000b0 58 57 b2 3c 43 fb 17 bd 56 de d1 3a c7 a2 98 bd
       0.021770164 -0.037104856 0.0016011696 -0.07452922
0000c0 27 4c 4e 3d a9 3f 46 bb 9c f8 1f 3c 66 c4 6b 3d
       0.050365593 -0.0030250347 0.009763863 0.057560347
0000d0 79 e3 de bc a5 eb 27 3d 26 a9 e6 3d 97 c6 3e 3d
       -0.027208077 0.040996213 0.11262731 0.04657611
0000e0 79 cf de bc 57 34 a1 3b 9e 13 ac bd ee 88 08 bd
       -0.02719854 0.0049195695 -0.08402179 -0.03333371
0000f0 66 72 ae 3c 40 48 48 bc 96 62 d0 3c a8 f7 d2 3c
       0.021294784 -0.012224257 0.025437634 0.025752857
000100 5c a7 29 3c ef 06 35 bc 99 a4 92 bd 37 8e 0c 3d
       0.010354843 -0.011049016 -0.07160301 0.034315314
000110 70 27 24 3d 21 0d 7f bd 7d 41 2e bd 8b e3 7d 3c
       0.040076673 -0.06226838 -0.042542923 0.015496145
000120 0b d3 2d 3d 3b 9d d0 3c 64 0f 03 3c 4f e5 fb bc
       0.042437594 0.025465598 0.007999275 -0.030748991
000130 fa 60 1b bd 1a c4 2e 3d 93 9b e6 3a 3a 0c 12 bc
       -0.03793428 0.042667486 0.0017593972 -0.008914048
000140 2d 5b 9a 3d 02 20 0f 3d b1 b7 19 3d 49 bb b9 bc
       0.07536922 0.034942634 0.037528697 -0.022672312
000150 f6 7a f6 3c ae 50 84 3d 12 58 cd 3d 99 95 14 bd
       0.03008793 0.06460701 0.10026564 -0.03627548
000160 9c 01 d0 3d 0f cb 3d 3b 34 8e 44 3c 6f ef 26 bd
       0.10156557 0.0028960144 0.0119967945 -0.040755685
000170 d9 33 03 3c eb b4 82 bd 5b 98 fe bc b2 1a 35 3d
       0.008007967 -0.063821636 -0.031078508 0.04421491
000180 fd ae 5c 3b bf ce 2b bd 14 17 46 bd fe 96 4b 3d
       0.0033673637 -0.041945215 -0.048361853 0.049704544
000190 63 ab e0 bb bf 01 75 3c 79 15 fe bb 43 8f 22 bd
       -0.0068563684 0.01495403 -0.0077540246 -0.039687406
0001a0 38 5c d9 bb 2a a7 9d bd a3 69 ea bc 1a df ac bc
       -0.006633308 -0.076979 -0.028614825 -0.021102477
0001b0 7b c5 16 3d 58 da 4c bc 79 fa 2c 3d 86 16 07 bd
       0.036809426 -0.012503229 0.042231057 -0.032980464
0001c0 68 d3 b8 bc 52 0f 05 3d 13 ed 3a 3c 4e 79 ec 3c
       -0.022561744 0.032485314 0.011409062 0.028866436
0001d0 a1 68 0f 3d 96 b9 7c bd 2c 2c bf bc 93 ee af bd
       0.03501189 -0.061700426 -0.023336492 -0.08590426
0001e0 a8 f7 c4 bd 2a a9 b8 3c 5e fb 7c bc 1a 77 6e bd
       -0.09617549 0.022541601 -0.01544079 -0.058219053
0001f0 2f 57 21 3d e5 59 9f bd cf 69 19 bc c6 b1 1c bd
       0.039389785 -0.07780818 -0.009363606 -0.038255475
000200 6f e2 36 ba 16 6e a2 bd 57 cd 10 bd cd c6 1a 3b
       -0.000697649 -0.079311535 -0.035352077 0.002361703
000210 a2 28 ad 3c 18 39 ba ba b5 98 a1 3c 51 17 1b 3d
       0.02113754 -0.0014207689 0.019726137 0.037864033
000220 04 9d 66 bc 91 ce 93 3d fc 19 2d bd d2 07 e3 bc
       -0.014075521 0.07217134 -0.04226111 -0.02771369
000230 22 77 21 3d 11 dd 5e 3d ac 40 1c 3d 25 97 a0 bd
       0.039420255 0.054410044 0.038147613 -0.078413285
000240 da fc 1b 3d d2 b7 6d bd 6f 3b b0 3c 47 da 31 3b
       0.038082935 -0.058036633 0.021512715 0.002713816
000250 2c 56 9b 3d 43 5b 3e 3d 46 16 fd bc 77 ea c3 bd
       0.07584795 0.046473753 -0.03089441 -0.09566205
000260 26 7c c3 3d 01 7d 5e bd c6 50 51 3d 19 28 3e 3d
       0.09545164 -0.05431843 0.051102422 0.04642496
000270 6b 05 39 3d a1 df ee bc c3 14 0f bd 31 11 74 3c
       0.045171183 -0.029159369 -0.03493191 0.014896677
000280 83 aa 32 bc 1b e2 44 bd 24 cc 29 bd 72 6d d9 3c
       -0.010904911 -0.048067193 -0.04145445 0.026541445
000290 a8 9f b5 3c b3 6c 19 bd 14 7e 28 bd 9a 55 90 bd
       0.022170857 -0.03745718 -0.041135862 -0.07047577
0002a0 95 09 a1 bc 32 35 f0 bb e5 64 b8 bc f3 d9 86 bd
       -0.01965789 -0.00733056 -0.022509048 -0.06584539
0002b0 d4 84 5e 3d e9 8f a4 3c 72 e7 84 bd 19 cb 3a 3d
       0.054325894 0.020088153 -0.06489457 0.045603845
0002c0 df f5 59 3d 12 c0 54 3d 9a af 54 bd 68 b5 0c bd
       0.053212997 0.051940985 -0.05192528 -0.03435269
0002d0 e5 d0 4a 3b d5 45 e1 3c 39 27 d1 3c 83 35 1b bd
       0.0030947265 0.027499119 0.025531398 -0.03789283
0002e0 72 15 c7 bd 71 ac ef 3c 4b 2b a8 3d 6c 4e 41 3d
       -0.09720887 0.029257031 0.082113825 0.04719393
0002f0 76 73 b6 bb 46 ad c0 3c 09 5a 0d bd 01 1d e1 ba
       -0.0055679632 0.023520123 -0.034509692 -0.0017174782
000300 6a 51 1c bd 80 18 23 bc 54 74 86 3d 96 1b 2b bd
       -0.03816358 -0.009954572 0.065651566 -0.041774355
000310 2f e0 95 3d 41 91 8b 3c 44 11 a3 bd 90 1b b2 3d
       0.0731815 0.017037036 -0.079622775 0.086966634
000320 18 5f 40 bd ef a0 04 3e 96 f1 40 bd 73 02 c0 bc
       -0.04696569 0.12952016 -0.047105394 -0.023438668
000330 a6 70 0b bd 43 a5 d7 3c 01 1a 29 3d d7 84 8a bb
       -0.034042977 0.02632392 0.041284565 -0.0042272615
000340 0f 71 2f 3d 2d 1f 34 3a 92 89 2a 3d 45 c7 db bb
       0.04283243 0.00068711006 0.041635104 -0.0067071044
000350 c0 3c c0 bc 88 bb 2e bd d5 f6 89 3c 3c 78 47 bd
       -0.023466468 -0.042659312 0.016841331 -0.04869865
000360 8f 92 8d 3d 1d 13 01 be 6c 5d c0 bd 01 fe 1b bd
       0.069127195 -0.12604947 -0.09392819 -0.038084034
000370 94 e2 dd 3c 69 cf a3 bc 67 80 c5 bc fa 24 48 3d
       0.02708558 -0.019996362 -0.024109079 0.04886339
000380 09 d1 11 3d 08 d5 cc 3c 4c 38 4b bb 11 7e f2 bb
       0.035599742 0.025003925 -0.0031008897 -0.007400282
000390 db c6 f3 3c 48 43 f9 3c eb ae dd 3c b2 bd 5b bc
       0.029757908 0.03042759 0.027060946 -0.013411926
0003a0 89 71 9e 3c c5 bc 7d bd 5a 9f 3f bd 61 c9 41 ba
       0.019341247 -0.061947603 -0.04678283 -0.00073923735
0003b0 be 09 8e 3d 42 5d 37 bd 2a 0d e9 bc 84 fd 0d 3d
       0.06935452 -0.044766672 -0.02844866 0.0346656
0003c0 a4 0b a0 bd e5 55 9c 3c e6 b7 6e bd 55 de 05 bd
       -0.0781472 0.019083926 -0.058280848 -0.032682735
0003d0 cd 37 ca 39 da 97 b2 3c f7 88 22 bd 35 49 7f 3d
       0.00038570017 0.021800924 -0.0396814 0.062325675
0003e0 94 60 b1 3d 43 49 0f 3d ce 3f 03 bc b0 13 73 bd
       0.08660999 0.034981977 -0.008010818 -0.059344947
0003f0 e3 95 e0 ba 53 81 1f 3d b4 66 d5 3c 75 f4 89 3d
       -0.0017134513 0.038941693 0.02604995 0.067360796

fc4.bias f4 [26]
000000 72 d8 94 3d 76 16 72 bd ec 43 5f 3c 80 e2 e6 3b
       0.07267846 -0.05910345 0.013627034 0.007046044
000010 4c 5c 8c 3d 16 08 3d bd 12 18 5d 3c 2d db 45 bd
       0.06853542 -0.04615029 0.013494508 -0.048304725
000020 71 c0 7c bb 09 07 c1 3c 96 89 01 3d d7 7c 77 bd
       -0.0038566852 0.023562925 0.031625353 -0.06042179
000030 ba 6c 1f 3c b6 66 53 3d f1 2c d0 bc 49 36 57 3c
       0.009730512 0.051611625 -0.025412055 0.013135501
000040 9f e6 cf bc c2 db bb 3b 5b ee f6 ba 32 eb 9b 3d
       -0.025378523 0.0057329843 -0.0018839346 0.07613219
000050 33 ba 40 bb 66 0b 3e bd 23 47 ab 3d 9a 9e dd bc
       -0.0029407858 -0.04639759 0.083631776 -0.027053166
000060 60 b9 35 bc 4a 28 ec bc
       -0.01109156 -0.028827805
