UNAM/MachineLearning/Sign/best_model.pt (torch_old, 335298 bytes, 10 tensors)

conv1.weight f4 [10, 1, 3, 3]
000000 42 51 9f 3e bc f6 73 bc 0b 99 57 be 3c 86 ab be
       0.31116682 -0.014890369 -0.21054475 -0.3350085
000010 3e 28 b8 3e 00 6e f8 bd 85 37 da bd 7b 3e eb 3e
       0.35968202 -0.12130356 -0.10655121 0.45946106
000020 e4 9d 9e be 1d 60 43 bd c0 b9 91 be 9f df 5f 3e
       -0.30979836 -0.047699083 -0.28462029 0.21862648
000030 38 c9 5f 3e f2 f2 b3 be 28 c0 b2 3e b3 5b 8f be
       0.21854103 -0.3514629 0.3491223 -0.27999648
000040 c6 f8 0d 3e 0f e7 5b 3d 20 93 89 bd b3 f2 95 be
       0.13864431 0.05368715 -0.06717515 -0.29286727
000050 7b 81 3d be 48 b8 2e be 38 5a 6e be 10 1e 32 3d
       -0.18506424 -0.17062485 -0.23276603 0.0434857
000060 bc d0 06 3b 3f 7f 8b be cb 0d 62 be ba fb 17 bf
       0.0020571193 -0.2724552 -0.22075574 -0.5936848
000070 87 e3 b2 bd aa 4f 3a bd 68 1d 23 be 9c a0 3c 3d
       -0.08734804 -0.04548613 -0.15929186 0.046051607
000080 39 d7 e8 3d 1d 55 a3 3e 70 c1 4b 3e 70 89 01 3f
       0.113691755 0.31900874 0.1989801 0.5060034
000090 b7 f5 cb be 4b 1b c0 3e b5 ab bd 3e 3c 11 c1 be
       -0.39835903 0.37520823 0.37045065 -0.3770846
0000a0 52 0d 6a bd d2 32 88 3e b1 b9 30 be d7 e6 b4 be
       -0.05714161 0.26601273 -0.17258336 -0.35332367
0000b0 21 c4 bd 3e dd e3 3f bd b1 f3 28 be 3d 47 7f be
       0.37063697 -0.046848167 -0.16499211 -0.24929519
0000c0 a6 14 a3 3e 32 83 97 be 33 94 95 be 84 7d 1f 3e
       0.3185169 -0.29592282 -0.2921463 0.15575224
0000d0 dc a5 66 be be fe 93 be 28 f1 93 3e 42 58 db 3e
       -0.22524208 -0.2890529 0.28894925 0.42840773
0000e0 1d 62 8c 3d f8 18 bf 3c f3 0d 98 bd ec 95 81 3e
       0.06854651 0.023327336 -0.074245356 0.25309694
0000f0 e0 3d a4 3d c7 f4 45 be db 2c 25 3e 7e b0 eb 3d
       0.08019614 -0.19331656 0.16130392 0.115082726
000100 e6 e4 43 bb 02 d8 3a 3e b6 d6 b4 bd b0 bc fe bd
       -0.0029891073 0.18246463 -0.08830015 -0.12438333
000110 e2 23 a6 bc 29 a6 9e 3e 32 29 95 3e 31 6f ac 3d
       -0.020280782 0.30986145 0.29132992 0.084196456
000120 91 f4 43 3d 4b 29 69 3e a6 fa d6 3d f9 bf e7 bc
       0.04784066 0.22769658 0.10497026 -0.028289782
000130 57 70 0e 3e 0d ee 2e 3e ed c2 4d be fb e2 a6 be
       0.13910042 0.17082997 -0.2009389 -0.32595047
000140 9b 76 2a be 48 e8 c2 3e d7 a7 83 bd c7 62 5d be
       -0.16646807 0.38067842 -0.06428497 -0.21619712
000150 9b 91 d8 3e 9c bc f4 b8 3c 0a 8b bd c1 e3 6c 3e
       0.42298588 -0.00011669958 -0.067890614 0.23133756
000160 a7 4f fc be 79 38 3c be
       -0.4927952 -0.18380918

conv1.bias f4 [10]
000000 c6 61 76 3e be 19 85 be 15 12 92 bd 2c 13 3a 3e
       0.24060735 -0.25996202 -0.07132355 0.18171376
000010 fe 8b 85 bc b6 20 f1 bd a9 df 41 be f8 bf 62 be
       -0.016302105 -0.11773817 -0.18932976 -0.22143543
000020 6b 34 16 be f9 50 98 3e
       -0.14668433 0.29749277

conv2.weight f4 [20, 10, 3, 3]
000000 bc 04 aa 3d 1a 0c 47 bd 80 d8 87 3d 28 a8 cc bb
       0.08301684 -0.048595525 0.06633091 -0.0062456317
000010 96 26 2a bd d7 9c a3 bd 2c 8f 4b bc c9 c5 2c bc
       -0.041540705 -0.07988899 -0.012424272 -0.0105452025
000020 61 ac 75 bd 75 09 17 bc 9d 70 6a 3d 0e 40 cd 3d
       -0.059978846 -0.009218563 0.057236303 0.10021983
000030 8c 94 2c 3d 61 92 9d bd 42 f7 05 be 7a 9a b8 bc
       0.042133853 -0.07693935 -0.13082603 -0.022534598
000040 61 4e 00 3e 79 3a fd bc 04 28 d7 bd c7 1d 39 3c
       0.12529899 -0.030911671 -0.10505679 0.011298603
000050 81 3b 16 bc 80 21 09 3c a6 a5 16 3d 54 49 a1 3c
       -0.00916946 0.008369803 0.03677907 0.019688286
000060 ca 02 6f 3d ab f1 a2 3d 5b 25 92 bd 6c 04 cd bc
       0.05835227 0.07956251 -0.07136031 -0.025026523
000070 33 f9 73 3d 1b 41 f0 3d 23 f7 40 bc b3 01 9b bd
       0.059563827 0.11731168 -0.011777672 -0.075686835
000080 5f b3 09 3d b4 52 1e bd c0 77 96 3d 25 44 42 bd
       0.033618327 -0.03865309 0.07347059 -0.04742827
000090 d2 30 b6 3d 0c b0 a1 bd 7f 1c 23 bd f0 e0 a3 3d
       0.088960305 -0.078949064 -0.039822098 0.08001888
0000a0 08 08 05 3e 42 15 a3 bc ec 58 67 3d ea 19 e1 3d
       0.12991345 -0.019907597 0.056481287 0.10991271
0000b0 80 a1 82 3c 44 c6 17 3d 8f ae 81 bd 05 df 29 bd
       0.01594615 0.037054315 -0.063321225 -0.041472454
0000c0 e6 3f d1 3d 70 1a c1 3c 45 47 9a bc 90 5f b3 bc
       0.10217266 0.023572177 -0.018832812 -0.021896154
0000d0 73 c7 91 3d b4 1b 8e 3d f3 e8 e9 bd 4a c6 43 bd
       0.0711812 0.06938878 -0.11421385 -0.047796525
0000e0 aa 5e 09 be 36 d1 22 3d 7f ea 17 3d 96 2c 1e bd
       -0.13415018 0.0397503 0.037088867 -0.03861674
0000f0 11 53 ca bd c3 db 88 3c e6 53 1b 3e 52 ce 0c 3d
       -0.09879125 0.016706353 0.15168723 0.03437645
000100 2a 2c 0a bd ec cd d1 3d 0b 2e ed bd 3f 7b 8a 3d
       -0.033733524 0.102443546 -0.115810476 0.067617886
000110 28 55 da 3d db 33 ea bd ac 0c ba bc c5 36 06 3e
       0.106607735 -0.11435672 -0.02271112 0.1310683
000120 d0 8d 67 3d 6b 8e 8d bd 7d 7b 4b 3d ef fc 92 3d
       0.056531727 -0.0691193 0.049678314 0.071771495
000130 b0 c3 d5 bd 6c dc 71 bd 16 ab 2c 3d 87 19 31 3c
       -0.10437715 -0.0590481 0.042155348 0.010809309
000140 b6 ae a2 bd 0f 2a a9 bd 26 69 0d 3d 30 af 84 bc
       -0.0794348 -0.08259975 0.034524105 -0.016196817
000150 1c ae 97 bc 31 d7 35 3d 1b 57 9c bd 19 16 b1 bd
       -0.018515639 0.044394676 -0.076338015 -0.08646793
000160 e9 e1 a4 bd 05 d5 33 bd 8a 42 18 3d c9 06 29 bc
       -0.080509014 -0.043904323 0.03717283 -0.010316559
000170 bf 68 92 bc 34 b3 fa bd 8b 32 c5 3c 02 f2 92 bd
       -0.017872212 -0.122412115 0.024071952 -0.071750656
000180 2b 7e bd 3d d2 4f c8 bc 22 1c 4a 3d 5c cb 9a 3d
       0.0925258 -0.024452124 0.049343236 0.07558319
000190 7c c4 0e 3d 7b 42 ad bd 31 cb ab bd 67 55 48 3d
       0.03485535 -0.08459946 -0.08388365 0.04890957
0001a0 e2 7b 30 bd 84 e3 cd 3c 31 98 84 3d fd b5 1c 3d
       -0.043086894 0.025132902 0.06474341 0.038259495
0001b0 07 70 7d 3c 81 8f c9 bb de 9a 9e 3d 7c 31 b6 3c
       0.015468604 -0.00615114 0.07744382 0.022240393
0001c0 75 34 6c bd 98 87 94 bd 39 22 11 3d 6d 33 1a 3d
       -0.057667214 -0.07252425 0.035433028 0.0376467
0001d0 1e b0 aa bc 51 d3 9b 3d 0b df a3 bd 9e 61 59 3c
       -0.020835932 0.07608665 -0.080015264 0.013267903
0001e0 27 fd aa bd b8 93 04 be 2b a7 17 3d 2d e6 c3 bd
       -0.08349066 -0.12946975 0.03702466 -0.09565387
0001f0 bb f8 17 3d 5b 5f af bd bf 4b df bd 74 17 f0 bd
       0.037102442 -0.085631095 -0.10903119 -0.11723223
000200 6a 79 12 3d 80 d3 8f 3d aa 39 47 3d c8 15 c0 3c
       0.03576032 0.07022762 0.048638977 0.023447886
000210 95 09 9d 3d 55 0d ba 3d ff ec 83 bd f9 2b 1d 3d
       0.07667843 0.09084574 -0.06441688 0.038372014
000220 6d 29 87 bd cb 8a 0a b9 55 53 52 3c 55 90 8d 3d
       -0.06599698 -0.0001321241 0.012837251 0.06912295
000230 b0 a2 0a 3d c0 93 82 3c 15 fd be bd f9 38 d7 bd
       0.033846557 0.015939593 -0.09325615 -0.105089135
000240 f1 66 16 bd cc 36 ae 3c 44 9a 7f 3d 8a 03 68 bd
       -0.036719266 0.021266364 0.06240298 -0.056644
000250 c2 27 ff bc 0c 79 31 bd 34 b7 eb bc 52 2c 8c 3d
       -0.031146888 -0.04332833 -0.028773881 0.06844391
000260 05 14 81 3b 10 48 93 39 11 a2 74 3d 4d 72 e6 bd
       0.003939154 0.00028091716 0.05972487 -0.1125227
000270 37 8f db 3d f5 ff e4 3d ec c3 af bc 56 dd 53 3d
       0.107206754 0.111816324 -0.021455728 0.051724754
000280 71 77 59 3d f6 a1 a6 3d b7 c3 d5 bd dd 55 f4 bd
       0.053092424 0.0813636 -0.1043772 -0.119304396
000290 59 68 96 bd f0 d0 81 bc c7 da 7a bd 4c 58 10 3d
       -0.073441215 -0.0158467 -0.0612438 0.035240456
0002a0 8b 81 0a 3e c7 71 3f bd 30 19 dc 3c b3 43 66 bd
       0.13525979 -0.046739366 0.02686748 -0.056216907
0002b0 4f a4 b6 bc f1 ca e0 3c 22 32 06 be 75 37 d3 3d
       -0.022295145 0.02744052 -0.13105062 0.10313312
0002c0 63 9e a5 3d 80 ba 43 3d 1a ff 9f 3d ef 60 06 be
       0.080868505 0.047785282 0.07812329 -0.13122915
0002d0 e5 7f bc bd 6b f7 80 3d 45 13 16 3d 69 e4 2c bd
       -0.092040814 0.06297191 0.03663947 -0.042210016
0002e0 07 3f a0 bd 4c d3 93 3c ef 6a 91 bd 84 2d 9a 3d
       -0.078245215 0.01804509 -0.07100474 0.07528213
0002f0 67 21 a9 bd 8b 92 bc 3d 29 cd a3 bd 65 32 b4 3d
       -0.08258324 0.09207638 -0.079981156 0.087986745
000300 b1 77 b8 bd 25 c9 cf 3d 81 4a 1d bd 6e 84 da bc
       -0.09007204 0.10145787 -0.03840113 -0.026674476
000310 50 bf 9f bd ee f5 aa 3c 70 71 ac 3c 71 dd ed 3b
       -0.07800162 0.020869222 0.021050185 0.007259064
000320 84 fd 20 3c 51 ce 49 ba 7e c6 0b bd 3e 2c 9a bd
       0.009826068 -0.0007698285 -0.034124844 -0.0752797
000330 df 52 fa 3c bd 7a 47 bd 34 5e b4 3d 04 3c 86 3d
       0.030557094 -0.048701037 0.0880703 0.06554416
000340 32 18 e7 3c a5 67 9d 3d 21 05 fa 3c 7a 73 2b 3d
       0.02820978 0.07685784 0.030520024 0.041858174
000350 43 53 94 3d 53 94 b1 bd 5b 58 ad bc 05 1b 65 bd
       0.072424434 -0.08670869 -0.021160295 -0.05593397
000360 e9 28 af 3d 90 ca 41 3d 03 f0 cf bc 2c 75 b1 bd
       0.08552725 0.04731232 -0.025383001 -0.08664927
000370 f2 62 ca bc b6 f8 82 bc ae c5 c8 bc e5 03 e1 bb
       -0.024705384 -0.015987735 -0.024508324 -0.0068669193
000380 44 30 69 3c c0 13 9b 3d d5 6a 83 3d b6 76 b4 3d
       0.014232699 0.075721264 0.06416861 0.08811705
000390 5f f3 0b bc c9 55 8b 3d d5 1c b8 bc 8e 5c aa bd
       -0.008541911 0.068034716 -0.022474686 -0.08318435
0003a0 84 06 84 3b 77 91 a8 3b 4d 09 c2 3d 82 c4 25 bd
       0.004029097 0.005144294 0.0947443 -0.040470608
0003b0 d9 fb a9 bd 3d ac 0d bd e3 66 13 3c 27 f7 a8 bd
       -0.08299989 -0.034588087 0.008996698 -0.082502656
0003c0 71 26 00 3c ee a0 92 3c ec fb a0 bd 8d 10 bd bd
       0.007821665 0.017899003 -0.0786055 -0.092316724
0003d0 22 0c c2 bd 09 31 51 3d 68 a9 97 bd 8a 34 c8 bd
       -0.094749704 0.051072154 -0.074053586 -0.09775646
0003e0 b4 8e 80 3d c5 88 08 3d 8c df c4 3d 2c 71 04 bd
       0.062772185 0.03333356 0.09612951 -0.03233449
0003f0 d5 06 65 ba d0 f9 8d 3a ef 80 82 3d e0 91 a4 3d
       -0.0008736675 0.0010831896 0.063722484 0.08035636

conv2.bias f4 [20]
000000 86 9d 6e 3d 5b fc c3 3d 04 90 a7 bc 83 67 1f bd
       0.058255695 0.09569617 -0.020454414 -0.038917076
000010 d1 7f 06 3d a1 f0 6e 3d 17 5b 6c bc 34 f4 9d bd
       0.03283674 0.05833495 -0.014426014 -0.07712594
000020 f1 91 48 bd 36 19 68 3b ba 9a ab 3d 88 e3 ac bd
       -0.048967306 0.0035415418 0.08379121 -0.08441836
000030 bb 15 0b 3c 30 80 46 3d 7e ae 02 bd dd ac 1d 39
       0.008489068 0.048462093 -0.03190469 0.00015037083
000040 1e 83 c0 bd e8 18 e2 3b 86 17 bc 3d 41 0c 81 bc
       -0.094000086 0.0068999417 0.09184174 -0.015752913

conv3.weight f4 [30, 20, 3, 3]
000000 d2 96 4b bd c5 17 82 3c fa 01 75 3d d1 a9 8c bb
       -0.04970438 0.015880475 0.059816338 -0.0042927046
000010 c7 d8 82 bd fe 87 a3 3c b3 0b f8 bb 84 74 ce 3c
       -0.06389003 0.019962307 -0.007569754 0.025202043
000020 3c 91 90 bd a0 e0 29 bc 05 ce 0e 3d ad ff 33 3d
       -0.07058951 -0.010368496 0.034864444 0.043945003
000030 d7 e2 3c 3d 49 e0 cb 3b 88 24 90 bd 9f 9f 69 3c
       0.04611477 0.0062218052 -0.07038218 0.014259248
000040 5e bf f3 3b d3 33 18 bb 85 95 d8 3c 27 1d 78 ba
       0.007438584 -0.002322425 0.026438484 -0.0009464793
000050 b6 70 71 3c 37 db 3c bc 4e 2a fa bc 3f 84 94 3d
       0.014736345 -0.011526874 -0.03053775 0.072517864
000060 66 a9 7f 3d 88 12 7a 3d 77 1e ac bc 8f d6 2a 3d
       0.06241741 0.06105283 -0.02101062 0.041708525
000070 b4 eb ba ba bf b6 42 bd 27 65 f7 3c fa 19 54 3b
       -0.0014260919 -0.04753756 0.0301996 0.0032364116
000080 f5 f5 af 3c 00 f9 94 bc b9 50 4b 3c d3 1b 55 3c
       0.021479586 -0.018185139 0.0124093825 0.013007122
000090 71 06 e0 3c be bf 8b bd a7 f2 b5 bd ca cb ca 3d
       0.027346822 -0.06823681 -0.08884173 0.09902151
0000a0 87 64 23 3c 6c 67 72 bd 45 c1 69 bd 7a eb 9d 3d
       0.009972698 -0.059180662 -0.05706908 0.07710929
0000b0 66 bf 92 3b 5c 82 b6 3c af 8f 4b 3d e3 d5 22 bd
       0.004478383 0.022278957 0.049697574 -0.03975476
0000c0 ff dc 65 3d 0c fe 2c 3d 58 f1 1a bd f3 04 46 3d
       0.05611896 0.042234465 -0.03782782 0.048344564
0000d0 76 cd e0 bc f4 ab 99 3d 9a c4 95 3c 72 97 9f bd
       -0.027441721 0.075035006 0.018282223 -0.07792558
0000e0 e3 30 e5 bb f1 55 9a bc a6 83 b4 bc 22 aa 86 3d
       -0.006994353 -0.018839808 -0.022035431 0.06575419
0000f0 15 77 2d bd 84 d7 9b 3d c6 fb c4 bc 62 11 6d 3d
       -0.042349894 0.07609466 -0.024045836 0.057877906
000100 b7 57 6c bd 61 f4 b0 3b ea 44 23 bc 38 0d 79 3d
       -0.05770084 0.005400226 -0.009965161 0.060803622
000110 41 47 d9 bc 70 52 42 bd 0a 76 ee bc 34 c9 4f 3d
       -0.026523234 -0.0474419 -0.02910902 0.05072899
000120 91 46 9d bc 97 4c 5b bb ab 7a 96 3d ab 97 0a 3d
       -0.019198688 -0.00334624 0.07347616 0.033836048
000130 93 29 fd 3b 21 13 1f 3d f7 a3 c2 bb f9 ff 2c 3c
       0.0077259033 0.038836602 -0.0059399563 0.0105590755
000140 22 24 98 3b c3 ca d7 3d 61 5e 15 3d a6 92 40 3c
       0.0046429792 0.105367206 0.03646696 0.011753714
000150 9b c6 97 3d 9d f2 87 bd 6a 93 b0 bd 7f 4f 65 3c
       0.07410928 -0.06638072 -0.08621867 0.013996004
000160 fe 41 f0 bc ef 00 d2 bd 86 18 e1 bc 49 88 87 3d
       -0.029328343 -0.10254084 -0.027477514 0.06617791
000170 36 02 0d ba 62 cb 69 3d 1d fb a1 bc 78 32 40 bd
       -0.00053790526 0.057078727 -0.01977306 -0.04692313
000180 82 fd bb bb 15 8d 51 bd a3 eb 90 bc d2 af 2c bd
       -0.0057370076 -0.051159937 -0.017690485 -0.042159863
000190 9b a2 b4 bd e1 f5 af 3d 99 47 6f bd ae 60 82 bb
       -0.08820077 0.085918196 -0.05841789 -0.0039788103
0001a0 b9 74 27 3c 6d 86 59 3c 9d 88 7e 3c 3b f6 b4 3d
       0.0102207 0.0132766785 0.015535501 0.08836027
0001b0 e8 51 8a 36 b0 9f a6 bb 65 91 fa 3c ad b4 17 3d
       4.1222556e-06 -0.005084954 0.030586908 0.03703754
0001c0 1f cf ed 3b 4d 5c 89 bc 1c 9e ea ba d3 d8 b6 bc
       0.007257357 -0.016767645 -0.0017899903 -0.022320187
0001d0 8b ee 77 3d 1e ba a8 3c 62 ec 36 bc 3b f8 9e bd
       0.060530227 0.02059656 -0.0111647565 -0.0776219
0001e0 bf 63 01 3b f3 18 74 3d d7 27 37 bd fb 22 50 3d
       0.0019743291 0.059594106 -0.04471573 0.05081461
0001f0 73 e5 82 3d 8d 54 53 bd 7e d6 8e 3d da 6f 3f 3d
       0.0639142 -0.051594306 0.06974505 0.04673753
000200 3e a7 93 3d 39 0f 38 bd 6a 98 0c 3d e1 cf 39 3d
       0.07209633 -0.044936392 0.03432504 0.045364264
000210 4f 4f 04 bc c8 2a 76 bd f4 1f ca 3c 3e 27 20 bd
       -0.008075549 -0.060099393 0.02467344 -0.039099924
000220 7d 57 a9 bc ed a9 91 bd b1 e0 eb bc fb 78 13 3d
       -0.0206716 -0.07112489 -0.028793665 0.036004048
000230 ff b9 9f 3b 0d 8e 0b bd 10 d0 87 bd 0e cf 22 3d
       0.0048744674 -0.034071017 -0.06631482 0.039748244
000240 2b bf bf 3d 5b 1d f1 bb 95 44 d6 bc 82 ce b7 3d
       0.09362634 -0.007358236 -0.02615575 0.08974935
000250 f9 f7 89 3c eb 45 bf 3c 71 1a 8a bd f3 12 aa 3c
       0.016841875 0.02334877 -0.067433245 0.020760989
000260 2d b7 92 3b 58 55 14 bd d5 bf 64 3d a6 34 86 bc
       0.0044774027 -0.036214203 0.055847008 -0.016382527
000270 f3 a3 5a bd 49 50 a1 bd f0 b3 45 3d d8 8e c3 3c
       -0.05337901 -0.07876641 0.048267305 0.023871824
000280 3b e1 89 bd b5 b7 44 bd 16 2c d0 3b b7 57 2a 3c
       -0.067324124 -0.04802676 0.0063529117 0.010396889
000290 cc 41 e4 bc 34 b9 b3 3c 4d e0 99 bd 66 85 a4 3a
       -0.027863406 0.021938898 -0.07513485 0.0012551963
0002a0 63 8c 1f 3d ab c0 99 bd ac 18 5e bd ee 69 5d bd
       0.038952243 -0.075074516 -0.054222748 -0.0540561
0002b0 0f 5e 93 bc 1c 67 54 3c 7e fb bb 3c fe 8e 07 bd
       -0.017989187 0.012964036 0.02294707 -0.033095352
0002c0 98 60 04 bd 08 2e 12 bd 5a 8b 82 bd a0 4d e7 bc
       -0.03231868 -0.03568843 -0.063742355 -0.028235257
0002d0 cc 7c 26 bd 6e 68 9f bc e3 36 89 bd 35 b6 2c 3d
       -0.04064636 -0.019458976 -0.06699922 0.042165954
0002e0 e0 71 86 bb 5e e3 15 bd 30 95 3e 3d 10 3e cf bc
       -0.0041029304 -0.036593787 0.046528995 -0.025298148
0002f0 66 9e 84 bd b6 c3 40 bd 31 66 6d bc 18 21 3d bd
       -0.064755246 -0.047061644 -0.014489696 -0.04617414
000300 4e c6 30 bc 2e 1c 18 bd c4 62 90 3d e9 38 96 bc
       -0.010789467 -0.03713625 0.07050088 -0.018337684
000310 7e f1 8c 3d 48 55 2f 3c ac 67 a3 3c 7c 50 54 bc
       0.068819985 0.010701485 0.019946896 -0.012958642
000320 7b 67 18 bd 8a a4 6b bd be 66 00 3c 54 93 2a 3d
       -0.03720806 -0.057529964 0.007836996 0.04164441
000330 a0 93 b6 3b d4 82 c2 3c 7e c7 32 3d 68 60 38 bc
       0.0055717975 0.023744024 0.04364728 -0.011253454
000340 4c c7 39 3d c2 d0 55 3d a5 5c 92 3d 38 e1 ce 3c
       0.04535608 0.05220104 0.07146577 0.025253877
000350 76 33 e6 bc 44 ee ed 3c 07 49 85 bd b8 a5 0a 3c
       -0.02810071 0.029044278 -0.065080695 0.008462362
000360 4e ab 17 bc c6 2b 3a 3d 5f ae 77 3d ef 1e 4e bd
       -0.009257151 0.0454519 0.060469028 -0.05032247
000370 c1 a6 3e 3d d6 9f 98 3d 7e 59 15 bd 62 f0 2a 3d
       0.046545748 0.07452361 -0.0364623 0.041733153
000380 52 6e 26 bd 21 a3 d3 bc 94 54 21 3d 60 97 8a bd
       -0.040632553 -0.025834622 0.0393873 -0.06767154
000390 22 8d 8f bb 04 9f e5 3c 7c f3 30 bd a8 ec 51 3d
       -0.004380838 0.028029926 -0.043200955 0.051251084
0003a0 e9 9c ce 3c 97 70 66 bd c0 8e 82 bc 07 d9 44 bd
       0.025221305 -0.056259718 -0.01593721 -0.048058536
0003b0 17 8e 5e 3d 3b b8 85 bc 54 8f 3f 3d 99 a4 15 3c
       0.054334726 -0.0163232 0.046767548 0.009133481
0003c0 41 dc 8d bd e2 e9 3e bd cc 87 f4 3a d5 50 87 3c
       -0.06926776 -0.046609767 0.0018656193 0.016518036
0003d0 53 1b 17 3d 80 12 50 3c 30 4c ee 3b 76 fc 54 3d
       0.036891293 0.012699723 0.007272266 0.051998578
0003e0 a2 e3 29 3d 8c 29 f5 3c a8 fe 5f 3c d4 4b 6c 3d
       0.041476853 0.029927038 0.013671555 0.057689503
0003f0 1e f6 23 bd 66 25 38 3d 32 07 14 3d 57 fe 0b bd
       -0.040029638 0.04495754 0.036139674 -0.034178104

conv3.bias f4 [30]
000000 0d a9 62 bd 2d 4b a5 3c d0 6d 04 3d c7 7d fe 3c
       -0.055337 0.020177448 0.032331288 0.031065835
000010 a3 86 0e 3d d6 c9 2a bd b2 ce 3f 3b a2 0c b2 bc
       0.03479637 -0.041696392 0.0029267487 -0.02173454
000020 1b 5a 50 bd fc 36 29 3c 5f e5 c1 bc 6d 45 05 bd
       -0.05086718 0.010328051 -0.023668943 -0.032536913
000030 74 bb 83 bd 24 02 54 3d 9c ca b4 bc cd d5 0c 3d
       -0.06432238 0.051759854 -0.022069268 0.034383584
000040 fe ea 07 bd e1 db 0a 3b a6 b0 d7 3c f6 93 4a 3d
       -0.03318309 0.0021188187 0.02632935 0.049457513
000050 15 7a 88 3c 5b a3 19 3d dc 0b 06 bd 75 5c 47 3d
       0.016659776 0.037509304 -0.032726154 0.04867216
000060 67 3f ff bc f0 9f 7f 3d 8c b0 5a bd 7e 9b 11 3d
       -0.031158162 0.062408388 -0.053391024 0.03554868
000070 e5 6b 2a bd af c0 ae bc
       -0.041606802 -0.021332113

fc3.weight f4 [256, 270]
000000 4d 19 2a 3c 37 dc be 3c 94 22 a5 bc 16 e2 c3 bb
       0.010382009 0.023298366 -0.02015809 -0.0059778793
000010 60 6b 60 bd 80 1f 95 bc b3 36 93 3d 9e d0 c3 3c
       -0.0547899 -0.018203497 0.071881674 0.023903187
000020 87 7c 2b 3d a0 d4 6c 3c e3 f9 d2 3c 0f 60 47 3d
       0.041866805 0.014454991 0.02575392 0.048675593
000030 9d ea 7d ba 46 78 13 bb 1f 82 b7 bc ef 9b 58 3c
       -0.0009686144 -0.0022502108 -0.022400914 0.013220771
000040 70 60 d8 3c 20 9d d5 ba dc 6f c5 bb fd eb 80 3c
       0.026413172 -0.0016297437 -0.0060252976 0.015737528
000050 2c 1d 3c bc 5c b8 20 3d b1 a5 68 3d 77 bd fd 3c
       -0.0114815645 0.03923832 0.05679864 0.030974133
000060 a2 65 2c bd 78 75 29 3d 30 8e a5 bc f3 8c 03 bc
       -0.042089112 0.041371793 -0.020209402 -0.00802921
000070 b0 4c 3f 3d 8c 19 ba 3c 4d bb 2b bd 4d cc 2a bd
       0.046703994 0.02271726 -0.04192667 -0.041698743
000080 8a 0a 79 3d f6 88 6c 3c 4c df 14 bc df 44 72 bd
       0.060801066 0.014436951 -0.009086441 -0.05914771
000090 98 f9 a5 3c 88 4b 56 3d f7 39 12 bb 0d fa 69 bd
       0.020260617 0.052318126 -0.0022312382 -0.057123233
0000a0 cc 70 f1 3c 6b 94 64 38 85 61 d4 bc 74 03 3d bd
       0.029472731 5.449766e-05 -0.025925407 -0.04614587
0000b0 4b 99 e7 bc 12 99 5d bd 5f 22 8d bd 74 97 07 bd
       -0.028271338 -0.054101057 -0.068913214 -0.03310342
0000c0 fc 2f eb 3c 50 d6 e8 3c 39 3d d6 3c 91 c9 50 3d
       0.028709404 0.028422505 0.02615224 0.05097348
0000d0 4a b5 c4 3c d0 b9 6f 3b ce a5 7b 3d 62 01 19 bd
       0.024012227 0.0036579259 0.06143742 -0.037354834
0000e0 a2 11 4e 3d 9b 56 02 bd 3a 1d 3a bc 51 c2 77 bc
       0.050309785 -0.031820875 -0.011359507 -0.015122012
0000f0 2d b9 a7 3c b2 3c 65 bd e0 69 43 bb 05 57 c6 3d
       0.02047404 -0.055966087 -0.0029817745 0.096845664
000100 d4 65 f5 bc b5 24 12 3d 02 ae 5b bc 40 3c d1 3c
       -0.029955782 0.035679538 -0.013408186 0.025541425
000110 3b 2c 8a bb 9d 86 35 bd 8c db c0 3c bf df 9f bd
       -0.0042166985 -0.04431783 0.023542188 -0.07806348
000120 22 2a 09 3d 00 f5 85 ba 38 da 08 bc 00 f4 55 3b
       0.033487447 -0.001022011 -0.008352809 0.0032646656
000130 2c 4f e2 3c ba f9 00 bd 78 3d 70 3d 98 9c 44 bd
       0.027625643 -0.031488158 0.05865237 -0.048000902
000140 c2 e3 42 3d 1b f9 b3 3c 58 c5 f1 3c 22 ad 05 3d
       0.047580488 0.021969369 0.029513046 0.032635815
000150 84 22 52 bd cd c0 f1 3c 4c c2 4c bd 4d 7c c2 bc
       -0.051302448 0.02951088 -0.049989983 -0.023740912
000160 95 48 e0 3b 26 3e cb 3c 34 d3 f7 3c f6 fd fe 3c
       0.00684459 0.024809908 0.030252077 0.031126957
000170 48 fa ae bb 92 44 82 3c 08 5d 3e 3d 22 14 ff bb
       -0.0053398944 0.015901837 0.04647544 -0.0077843824
000180 5a 77 03 bb c4 c1 84 3d 76 01 ba 3c 22 80 f2 3c
       -0.0020060153 0.0648227 0.022705775 0.029602114
000190 6d f1 e0 bc df 1e f0 bc 15 cf d2 3c ad 1c 04 bd
       -0.02745887 -0.029311595 0.02573351 -0.03225391
0001a0 1a f3 70 3c ba 71 dc bc c2 eb 4f bb 7e 92 a8 3c
       0.014706397 -0.026909698 -0.0031726216 0.020577665
0001b0 bf be 31 3d a0 cd 62 3d 5e c6 7d 3d 0a 35 47 bd
       0.0433948 0.05537188 0.061956756 -0.048634566
0001c0 dd 2c 66 3d b1 15 ea bb 0a d6 4e bd 4e 49 d2 bc
       0.05619513 -0.007143699 -0.050497092 -0.02566972
0001d0 e0 a5 1e bd 43 a5 e9 bc bd 4f 3a 3d ee 81 2c 3d
       -0.03873241 -0.028521186 0.0454862 0.042116098
0001e0 bd f3 6f 3d e4 58 b2 3c d9 b6 20 bd c0 e7 1d bd
       0.058582056 0.021770902 -0.039236877 -0.038551092
0001f0 60 f9 0a 3d 57 14 5b bc 38 d4 b2 39 b8 3e a9 3c
       0.03392923 -0.013371549 0.0003410892 0.02065979
000200 57 8f 08 3d 5e 93 04 3d a1 a2 6e 3b 4d 2c 0e 3d
       0.033339825 0.032367103 0.0036412852 0.034710217
000210 56 0b 1d 3d 1d 34 4f 3b 02 5a 71 3b 29 d8 d8 3c
       0.03834089 0.0031616755 0.003682733 0.02647026
000220 9d b8 68 bd 17 24 73 bd 15 e0 96 3c 30 f8 43 bc
       -0.056816686 -0.05936059 0.018417398 -0.011961028
000230 d6 7b 10 bd 79 03 44 bd 66 e3 71 3d d2 36 06 bd
       -0.03527435 -0.047854874 0.059054755 -0.032767124
000240 d8 94 87 3c 8a 12 61 3d 6e e7 f9 3c 98 69 5c 3d
       0.016550466 0.05494932 0.030505862 0.05381164
000250 09 50 d3 3c 1e f3 b3 3b 4d 8c 2f 3d 49 53 4d 3d
       0.025795 0.0054916283 0.04285841 0.050128255
000260 48 83 74 bd 1e 24 1d 3d 18 f1 a0 bc d1 1c cc bb
       -0.059695512 0.038364522 -0.019646212 -0.006229021
000270 8a e8 75 3d e9 9c 4b 3c be b2 fc 3c ca 18 83 bc
       0.06003622 0.012427547 0.03084695 -0.016003031
000280 44 80 94 3c a1 d6 53 3d 7b fd 99 3b 47 4e f0 bc
       0.018127568 0.051718358 0.0046994067 -0.0293342
000290 cd 60 60 bc a5 55 9f 3a 94 90 72 bd 02 a5 62 bc
       -0.013694954 0.0012156261 -0.05921991 -0.013833286
0002a0 9c 74 1a bd 78 4c 96 3c 08 0a 87 3a 47 9d 40 bd
       -0.037708864 0.01834701 0.0010302672 -0.04702499
0002b0 18 4d a5 3c dd 5f e3 bc 7b 0e 86 bc f3 59 c2 3b
       0.020178363 -0.027755672 -0.016364327 0.005931133
0002c0 db 06 57 3d bb 7b 59 bd f5 0b b3 3c 1c 06 ff 3c
       0.052496772 -0.053096514 0.021856287 0.031130843
0002d0 af 31 69 bc 8b ae 14 3d 47 fb 78 3d c1 29 45 3d
       -0.014233037 0.03629927 0.06078651 0.048135523
0002e0 1d f3 1a 3d 4a 9d 21 3d 5c c7 1f bd ca 9f 5b bd
       0.037829507 0.039456643 -0.039008483 -0.053619184
0002f0 6f 59 b4 3c 8e bd 2c bd d5 58 18 3d 7b fc 61 bd
       0.022015302 -0.04217296 0.03719409 -0.055172425
000300 3d 94 59 3d 61 c1 71 bd b8 0a 85 bb df ff 57 bd
       0.053119887 -0.05902231 -0.0040601157 -0.052734252
000310 5c dd 6e bd ac c5 53 bd 16 08 6d bc 7d 96 33 bd
       -0.058316574 -0.051702186 -0.01446726 -0.04384469
000320 6b 2b 54 3d 08 88 cd bc f3 bd 0e 3d c2 50 c6 bb
       0.05179922 -0.025089279 0.03484912 -0.0060521076
000330 da c0 3c 3c 2c f5 41 3d e6 a3 38 b9 37 e3 3f 3d
       0.011520589 0.047352955 -0.00017608664 0.04684755
000340 ed 75 33 3d 3d 74 5f 3c 71 ce 57 3d ab 95 24 bd
       0.043813635 0.013638553 0.052687112 -0.040181797
000350 99 0a 6e bc 81 28 bd ba 39 a1 48 bb de 8e 8b bc
       -0.014528894 -0.0014431627 -0.0030613674 -0.017035898
000360 56 9c 31 bd 0d aa 89 bd d8 69 5a 3d d7 12 bd bb
       -0.043361984 -0.06721888 0.053323597 -0.005770068
000370 12 68 ea 3c 1f 8f 04 bc 3b 3b fe bc 24 cf 83 3d
       0.028614078 -0.008090763 -0.031034103 0.06435993
000380 98 be 06 3c 2c 8f ae bb ee 82 08 bc 34 0e 39 bd
       0.008224152 -0.005327126 -0.008331997 -0.04517956
000390 1d 95 11 bd d2 8b 15 bd 82 04 42 3b 66 3e ef 3c
       -0.035542596 -0.036510296 0.0029604738 0.029204559
0003a0 6f 85 be 3c 67 38 b9 3c f0 7f 96 3c f5 b4 a9 3c
       0.023256985 0.022609903 0.018371552 0.02071617
0003b0 b9 d3 5a 3c 6c b6 2f bd 88 85 57 3a 6b d2 e1 bc
       0.013356143 -0.04289858 0.0008221497 -0.027566155
0003c0 f7 fc bf 3b a2 33 f3 b7 22 49 6d 3c 65 c2 19 ba
       0.005859013 -2.89919e-05 0.014482768 -0.0005865454
0003d0 24 6f ab bc 25 d0 54 ba 87 70 e2 bc 53 87 91 bc
       -0.02092702 -0.0008118174 -0.027641548 -0.017764723
0003e0 11 04 59 3d e2 c2 2b 3c 7d 25 13 3d c6 29 da 3c
       0.052982394 0.010483475 0.035924423 0.026631247
0003f0 ec 46 ce 3c cd ae 8a bc 67 84 0f 3d 3c 4b 3b bd
       0.025180303 -0.016929055 0.035038378 -0.045726046

fc3.bias f4 [256]
000000 2a 72 89 bc f1 83 12 bd c2 d5 f0 bc 69 2f ba bc
       -0.01677807 -0.03577036 -0.029398803 -0.022727685
000010 84 8f f5 bc 30 b1 08 3d 25 e4 c7 3b 48 51 35 3d
       -0.02997566 0.033372104 0.006100195 0.04426697
000020 ab 43 7b 3c 6a bc 36 3c 43 2f e8 bc 0c f9 a0 3c
       0.0153359575 0.01115332 -0.028342849 0.019650005
000030 71 7d 2a bd 10 31 48 bd b3 59 39 3d 24 c4 14 bd
       -0.041623536 -0.048874915 0.04525156 -0.036319867
000040 6b a6 59 3d af b4 7f 3b f3 84 38 3d 4e 68 59 bc
       0.053137224 0.0039017608 0.045048665 -0.013269497
000050 6c 13 63 3d 47 73 21 bd 4d 70 62 3c 4c fb 68 ba
       0.055438444 -0.039416578 0.01382072 -0.0008887544
000060 06 0c dd 3c c0 27 02 bd 6d c0 bf 3c fc d4 03 3d
       0.026983272 -0.03177619 0.023407185 0.03218554
000070 ef 22 14 3d af 2c f3 3b e9 c9 2b bd 89 b3 15 bd
       0.036166128 0.007421098 -0.041940603 -0.03654817
000080 fb 0d 89 3c b4 17 da 3c e1 7e 43 3c e8 59 27 bd
       0.0167303 0.02662263 0.011932106 -0.040857226
000090 5b 05 e9 3c 44 58 67 3d c4 4f c6 3c 40 4a f2 3c
       0.028444936 0.05648066 0.024207957 0.02957642
0000a0 61 25 3e 3d a9 6d d7 3c 4e 92 a3 bc 09 46 a0 ba
       0.046422366 0.026297407 -0.019967224 -0.0012227903
0000b0 8d 47 a5 bc 7e 03 bd 3c 23 1b 52 3d bd 64 44 bd
       -0.02017572 0.023072954 0.05129541 -0.047947634
0000c0 0e 74 59 bd b2 16 0b bc 4f 83 45 3c 57 14 89 bc
       -0.053089194 -0.008489298 0.012055232 -0.016733332
0000d0 3f 06 14 bd 62 a2 23 bd 79 03 08 bd 85 29 0f bd
       -0.03613877 -0.039949782 -0.033206437 -0.034951705
0000e0 58 db 8c bc 49 ac 77 bc 61 69 49 bd d5 cd 17 bd
       -0.017194435 -0.01511676 -0.049172763 -0.03706153
0000f0 ea 54 5e 3b 5d f7 9e 3c c6 bb bb 3c df 87 a8 bb
       0.0033925124 0.019405061 0.022916686 -0.00514315
000100 06 4e 27 bd 49 93 bf bc 96 d4 7d 3b 77 54 31 bd
       -0.040845893 -0.02338566 0.0038731447 -0.043293443
000110 d8 cc 83 bc 65 41 15 3d 58 48 f7 3c 77 3c 23 bd
       -0.016088888 0.03643932 0.030185863 -0.039852586
000120 6d 1c 5d 3d 18 d1 25 3d ee e3 b0 bc 6b 6f 28 bd
       0.053982187 0.04048261 -0.02159306 -0.04112188
000130 8f 81 2c 3c 41 2a b7 3b ac e6 eb 3c cc 9b b8 3c
       0.010528936 0.005589754 0.028796516 0.022535227
000140 1c 18 86 3c a1 f7 ea bc 62 07 c5 bc 73 2d 21 3d
       0.016368918 -0.028682532 -0.024051372 0.039349984
000150 90 f5 4c bd 19 dd 3e bd 91 28 e5 bb 01 c0 a6 bc
       -0.050038874 -0.046597574 -0.0069933613 -0.020355226
000160 60 22 49 bc a9 8f 10 bd da 22 60 3c 47 7c 64 bd
       -0.012276262 -0.035293255 0.013680184 -0.055782583
000170 42 0b 75 3c cc c4 f5 3c 8b 50 46 3c 20 1d 0d 3c
       0.014956297 0.030001067 0.012104164 0.008612901
000180 b8 e0 9a bc 2b 6f 3c 3d d2 19 44 3d 84 3b 57 bd
       -0.018905982 0.046004456 0.047876187 -0.052546993
000190 6e 36 40 3d 51 6b dd bc 75 3a 20 bc 30 f0 29 3d
       0.04692691 -0.027028712 -0.009779562 0.041488826
0001a0 4a fa f7 3c e5 3a 1a bc 52 b6 11 3c bf fe 4d bc
       0.030270714 -0.009413456 0.008893566 -0.012572943
0001b0 00 a4 64 bd 21 70 97 bc fc d1 ef bc 09 37 20 3c
       -0.055820465 -0.018486084 -0.029274933 0.009778746
0001c0 12 06 a9 3c 0f b2 bb bc 38 9e 50 bd 9a b4 7a 3d
       0.020632777 -0.022912053 -0.05093214 0.06120739
0001d0 0e 02 54 bd 58 fc 6f bd 3d 73 4b bd 93 09 1e 3d
       -0.051759772 -0.058590263 -0.049670447 0.03858335
0001e0 c3 ee 23 3c f2 59 36 3d d2 29 66 bd 5b ac 1e bd
       0.010005656 0.044519372 -0.056192227 -0.03873859
0001f0 23 63 cd 3b 2c 56 65 bd f4 bc 82 bc 29 cb 70 3d
       0.0062679215 -0.055990383 -0.01595924 0.0587875
000200 0f cc 81 3c a4 d0 c0 3b a8 51 c8 bc 3e b3 96 3c
       0.015844373 0.005884247 -0.024453 0.018396016
000210 ec 86 2f bc e0 38 c3 3b 2c c9 ef bc 93 3c a6 b9
       -0.01071332 0.0059577078 -0.02927073 -0.0003170712
000220 a1 2c 3a bd e0 83 44 bd 75 1f e0 3c 30 36 ac bc
       -0.045452718 -0.04797733 0.02735875 -0.021021932
000230 a4 3f 66 bd 1a b0 3f bc 77 4c c3 3c e4 4b 55 bd
       -0.056213036 -0.011699701 0.023840172 -0.052074328
000240 7c 41 18 3d e6 25 bc 3c fe 1e 52 3b fd ef 52 bd
       0.037171826 0.02296729 0.003206193 -0.051498402
000250 25 91 fe bc 2c da 40 3c 32 6f af bb 3c 94 b0 bc
       -0.03107507 0.011770766 -0.0053538317 -0.021555059
000260 e6 23 6b 3d db f1 75 3d 00 15 aa 3c 2d 18 22 3d
       0.057407282 0.060045104 0.020761967 0.039573837
000270 7e 8a 0a 3b 00 8c ae bc b3 dd 6d bc fc d8 53 3d
       0.0021139677 -0.021306992 -0.014518189 0.051720604
000280 5f 85 5d 3c a3 59 68 3d 5b 7c 14 bd 3f c2 12 3c
       0.013520568 0.05672611 -0.036251407 0.008957445
000290 8e a6 3f bd 7a 2f 23 bd 62 20 b6 bc 5f e3 ea 3b
       -0.0467897 -0.0398402 -0.022232238 0.007168218
0002a0 24 3c f3 3c ac 9d fc bb 55 52 35 3c ce e3 f5 3c
       0.029691763 -0.0077092256 0.011066993 0.030015852
0002b0 57 63 fe bc 19 a2 44 3d 17 82 c7 3c c9 c3 60 3d
       -0.031053228 0.04800615 0.024354024 0.054874215
0002c0 ed 21 4a 3d 31 d6 84 bc bc cd 01 bd e1 02 b6 bc
       0.04934876 -0.016215416 -0.031690344 -0.02221817
0002d0 a5 9c b4 bc ee 78 cc 3c 63 c7 9b bb eb 0b 11 bd
       -0.02204735 0.024960008 -0.0047539934 -0.035411756
0002e0 c3 ec 02 3d 9f 09 43 3d 1d 99 6d bd 8b ce 15 bd
       0.031964075 0.047616597 -0.05800735 -0.036573928
0002f0 d4 a5 e0 3b 74 a8 44 bc 5d bc e7 39 17 0f b4 bb
       0.0068557058 -0.012003053 0.00044200095 -0.005494963
000300 03 57 60 bb 51 22 62 bb f3 43 33 bd 5b 38 9d bc
       -0.003423155 -0.0034505317 -0.043765973 -0.019191911
000310 b2 d5 d5 3b 18 18 dc bc 5d ff 3a 3d b2 9f 84 b8
       0.0065257186 -0.026866958 0.04565369 -6.323996e-05
000320 d1 62 35 3d b8 f1 41 bd db ad 50 bd 94 82 70 bd
       0.04428369 -0.04734966 -0.05094705 -0.05871828
000330 f6 ae 3d bc 5e ee 5a bd 14 58 c2 bb 23 aa 04 3c
       -0.0115773585 -0.05344998 -0.00593091 0.008097204
000340 6f cb e3 3c 72 b2 3c bd d1 81 dd 3c 80 7b b9 bc
       0.027806966 -0.046068616 0.02703944 -0.022641897
000350 6c c7 89 3b df fe 44 3c 6c 98 17 bd 0e 12 85 3c
       0.004204681 0.012023657 -0.037010595 0.01624396
000360 be 6d 6d 3b ea 77 d5 bc b8 3d 37 bc d6 c0 48 3d
       0.0036228742 -0.026058156 -0.0111841485 0.049012028
000370 15 b1 b4 bc 63 ad 61 3d 9a 44 80 bb 3e 09 e5 3c
       -0.022057096 0.055096995 -0.003914428 0.027958509
000380 fb c9 98 ba 5b 0d 2b 3d 40 b0 56 3d 5d 3e 03 3c
       -0.0011656875 0.041760784 0.05241418 0.008010474
000390 d4 49 0d 3d 96 d3 1c bc 45 f7 b1 bc 2e 1f a8 3c
       0.034494236 -0.00957193 -0.021724353 0.02052268
0003a0 60 35 70 3c f4 ea 30 3d eb 2f 5f 3d b0 1a fd 3c
       0.014661163 0.04319282 0.054489058 0.030896515
0003b0 ba 42 23 3c 4a a1 04 bc de 83 4c 3d ad fb 4c bc
       0.009964639 -0.008095095 0.049930446 -0.012511176
0003c0 ed 21 4e bd ad 04 71 bd fc 24 4a bd 01 6b 03 bc
       -0.050325323 -0.05884235 -0.049351677 -0.008021117
0003d0 24 b8 fd 3c ad 6c 91 bc 40 1e 36 bd bd 56 cb bc
       0.030971594 -0.017752016 -0.044462442 -0.024821633
0003e0 29 27 76 3d 03 f0 05 3c c9 88 39 bd 29 ae 68 bd
       0.06009594 0.008174899 -0.045296464 -0.056806717
0003f0 68 fe 13 bd 98 05 68 bd b5 7d 60 3d 97 41 0b 3c
       -0.036131293 -0.05664596 0.054807384 0.008499525

fc4.weight f4 [26, 256]
000000 71 b8 ca 3c 08 23 19 bd 97 18 5d bd 62 35 a4 3c
       0.024746152 -0.037386924 -0.05397853 0.020044986
000010 f4 ce 87 3d 75 e9 ea 3c 5f 12 54 3d bb 87 69 3b
       0.0663127 0.028675774 0.051775333 0.003563388
000020 e8 75 01 3d c2 b9 59 3d d8 aa 93 bd 71 fc 1d 3c
       0.031606585 0.053155668 -0.0721032 0.009642706
000030 5c 2d 5c bd b0 42 20 bd c3 09 01 3d 46 e5 63 3d
       -0.053754196 -0.0391261 0.03150345 0.055638574
000040 8a 45 00 bd 9c 4c 9c bb a1 2b 42 bc 37 5b 06 3d
       -0.031316318 -0.0047698747 -0.011851222 0.032801833
000050 4f 45 5e 3d 1b 3b 44 bd 14 1a ce bc 19 c3 d6 bc
       0.054265317 -0.04790793 -0.02515892 -0.026216077
000060 7a f1 84 bd dd 6d 1b 3d 60 c3 96 3c fc b5 e9 bc
       -0.064913705 0.03794657 0.018403709 -0.02852916
000070 bd 24 f8 bc 5b b7 ea 3c 01 5c da bc a9 d9 45 3d
       -0.030290956 0.028651884 -0.026655199 0.04830328
000080 1c b6 92 bc 4b b1 3d 3d ff 72 d3 3c 10 9a 1b 3c
       -0.017909102 0.046311658 0.02581167 0.009497181
000090 43 b9 6b bd b9 6f 0d bd f5 d4 27 bd 33 ec 8f bd
       -0.057549726 -0.034530375 -0.040974576 -0.07027473
0000a0 00 0f e3 3c 75 cc 74 3d 3a 83 81 3b 94 76 10 bb
       0.027717113 0.059765298 0.003952411 -0.0022043334
0000b0 56 3d 67 3b f8 95 34 3c 83 07 13 bd d7 e6 8f 3c
       0.0035284362 0.011022083 -0.035895836 0.017566128
0000c0 2e 9c bc bc 23 4c 56 3d cd 3c 74 bd d6 65 14 bd
       -0.023023691 0.052318703 -0.059628297 -0.03622993
0000d0 73 d0 0c bc 73 81 3d 3c 55 0c 39 3d d6 4c 39 bd
       -0.00859462 0.011566508 0.045177776 -0.045239292
0000e0 5a a5 7e 3d 74 0b d8 bd 5c cb 89 3d 8e c5 bf bc
       0.06216941 -0.105490595 0.06728241 -0.023409631
0000f0 40 b6 86 bd c7 ff a0 3c 7d 2d 7b bd 51 ed c5 bc
       -0.0657773 0.019653214 -0.061322678 -0.024161013
000100 f2 67 8b 3c c5 4c b7 bd 5d 64 04 3d 4f 80 46 3c
       0.017017338 -0.089501895 0.032322276 0.012115552
000110 bc 56 f0 3b e0 a6 9f 3d 3f a4 9f 3d 50 84 94 3c
       0.0073345583 0.07795501 0.07794999 0.018129498
000120 52 fa ad 3c fc 78 45 3d cf c2 4a 3d 60 56 32 bd
       0.021237526 0.048211083 0.04950219 -0.043539405
000130 16 ce d2 3c a2 04 ac bb 6e 1c 85 3c 81 1e 7e 3c
       0.025733035 -0.0052495757 0.016248908 0.015510202
000140 ca 55 d9 3c 41 fc 67 bd a6 45 9b 3c da 83 62 bc
       0.026530165 -0.056637052 0.01895411 -0.013825381
000150 3d 2e 56 3d de 76 9a ba 5c 54 11 bc c2 8c 35 bd
       0.05229019 -0.0011784693 -0.0088702105 -0.04432369
000160 89 4f 82 bd 9e d4 5b bd e7 a7 9e 3d 7e 08 63 3c
       -0.063628264 -0.053669564 0.077468686 0.013857005
000170 93 f7 20 3d e2 e9 1f bd f1 13 91 bc 54 ef 0f bd
       0.039298605 -0.039041407 -0.017709704 -0.03514035
000180 33 e7 32 3d a8 5d 6b bd c2 c4 19 3c fe 3a ad bc
       0.04367752 -0.057462364 0.00938529 -0.021146294
000190 68 df 8c bc 0d b4 29 bd 8d e4 b0 bb 21 08 dd 3c
       -0.017196372 -0.041431475 -0.005398339 0.026981415
0001a0 86 5b 8b bc 1f 14 5f 3d 55 46 98 bd 88 c9 9d bc
       -0.017011415 0.05446255 -0.0743529 -0.019261137
0001b0 e3 c0 e7 3c 18 9d 26 3d 8b 33 b3 bd 09 52 8a 3d
       0.028290218 0.04067716 -0.087500654 0.06753928
0001c0 50 9c 8e bd 72 eb d7 3b 80 3d 68 bd 10 c7 34 3d
       -0.06963408 0.0065893466 -0.056699276 0.044135153
0001d0 7e bb 6b 3c cb 84 22 bc 57 cf 9f bc 51 51 bd bb
       0.014387963 -0.009919356 -0.019508047 -0.005777516
0001e0 9a 32 36 3d b0 c6 1c bb b9 ef 15 bc ef 14 e5 bc
       0.04448185 -0.0023922138 -0.009151393 -0.027964083
0001f0 8a c2 c2 3c a3 cb 6a 3c 8a 6a 24 bd 55 29 06 3d
       0.023774404 0.014330777 -0.040140666 0.03275426
000200 c2 ac a1 3c 72 44 7d bd fb 26 4f 3d 10 cb d1 3c
       0.019735698 -0.061832853 0.050574284 0.025609523
000210 4d bb 15 3c 15 aa 30 bc e3 eb 47 bd 86 3d 21 3d
       0.009138894 -0.010782738 -0.048808943 0.039365314
000220 d9 23 12 bd 0c ed 8a 3d 80 5a 52 3c 4c 8a af bd
       -0.03567872 0.06783494 0.01283896 -0.085713
000230 70 67 58 3c fe 92 20 bd 06 f0 11 3d da c7 9a bc
       0.013208255 -0.039202683 0.035629295 -0.018894125
000240 53 89 c6 bc 05 fd ef bc c5 cd 95 bd e0 2a 8e bc
       -0.024235403 -0.029295454 -0.07314638 -0.017354429
000250 db 88 39 3d 78 8e 5f 3d 27 29 d3 bc c3 de 62 3c
       0.04529653 0.05457923 -0.025776459 0.013847056
000260 2e 2b f2 3b c6 08 13 bd 77 b0 b9 3d bb 53 03 b9
       0.0073904013 -0.03589704 0.09066861 -0.00012524326
000270 6e 92 2e bd 76 ee 7d bc 29 e5 39 bd f4 40 08 3e
       -0.042620115 -0.015498748 -0.04538456 0.13306028
000280 fd e7 9f 3d b6 73 31 b9 37 ae 3f bd f4 d9 90 3a
       0.0780792 -0.00016923141 -0.046797004 0.0011051283
000290 d6 c5 34 3d e4 fe 27 bc b0 ae 1b 3d 5d d2 e5 3c
       0.044133984 -0.010253642 0.03800839 0.02805441
0002a0 c2 a9 63 bd 9a 00 d6 3c 84 f1 86 bd 94 48 ce 3c
       -0.055581816 0.026123334 -0.06589034 0.025181092
0002b0 71 e8 3c bd ad b4 32 3c f4 43 b4 3c 00 1a fa 3c
       -0.04612011 0.010907334 0.022005059 0.030529976
0002c0 91 a7 8a 3d bf ab 47 bc a7 c3 29 3d 02 03 00 bd
       0.06770242 -0.012186944 0.041446354 -0.03125287
0002d0 f9 50 80 bd e9 47 59 3d 25 b4 31 bc a0 1a 39 3c
       -0.06265444 0.053047094 -0.010846172 0.011297852
0002e0 5d 04 bd bd e7 96 da 3c 7b 10 c0 bc c4 df 74 bc
       -0.09229348 0.026683284 -0.023445358 -0.014945928
0002f0 64 76 99 bc 5c c7 35 bc b6 92 23 3d 33 c4 e6 3c
       -0.01873321 -0.011094894 0.039934836 0.028169727
000300 0d 2d 82 3c 94 f6 1c 3d 8d f3 fe bc 1d 8f 0d bd
       0.015890623 0.038321093 -0.031121993 -0.03456031
000310 07 60 f7 3c 5a 2d 91 3a 78 e5 88 bb 8d ac 81 bc
       0.030197157 0.0011076138 -0.0041777454 -0.015829349
000320 19 9d fd bc 6c d5 1f 3d 02 84 e3 3c a7 27 80 3d
       -0.030958699 0.039021894 0.027772907 0.06257563
000330 8e 19 68 bd f5 a5 51 bd b4 1f 8f bc d5 6e 1c 3c
       -0.056664996 -0.05118366 -0.017471172 0.009547909
000340 6b 3d 93 bc 54 d7 bc 3d 34 ec f4 3c a8 01 ff 3b
       -0.017973622 0.09220758 0.029897787 0.00778218
000350 c0 5a 03 3d 46 71 05 bd 5a bf 29 bb ae 63 88 3b
       0.032068968 -0.03257873 -0.0025901408 0.0041622734
000360 91 85 20 3d c3 1b 23 3d 33 df 98 bb e5 56 a2 3d
       0.03918988 0.039821398 -0.0046652793 0.0792673
000370 c5 af d6 bc 1c 23 17 bc 68 10 eb ba 9a 5c 2f bd
       -0.02620686 -0.009224679 -0.0017933967 -0.04281292
000380 81 cc 66 bd de a9 49 3d ac 08 c1 3d 59 c7 ff bc
       -0.056347374 0.049234264 0.09425482 -0.031222986
000390 ad 30 24 bd 95 6e 42 3d d1 80 e7 bc 3a e5 74 3d
       -0.040085483 0.04746874 -0.028259667 0.05978892
0003a0 6d 06 5b bd 79 f6 6a 3d d7 22 32 3d 0e 69 bb bc
       -0.053472925 0.05736396 0.043490257 -0.022877242
0003b0 8f 3d 89 bd 30 20 35 3d ae 8c e7 3c 0c 16 da bc
       -0.067011945 0.04422015 0.028265323 -0.02662184
0003c0 a4 69 38 b9 58 f3 5a 3d cd 8d 38 3d 7e 51 c2 bc
       -0.00017586962 0.053454727 0.045057107 -0.0237205
0003d0 19 83 4c bd 69 8a 86 3c bc 69 0a 3d 6e 6d c2 bd
       -0.049929712 0.016423421 0.033792242 -0.09493528
0003e0 04 d2 2d 3d 26 e5 ce 3c be 24 55 bd 1a 64 67 bc
       0.042436615 0.02525575 -0.052036993 -0.014122987
0003f0 fd 26 92 bc 97 e6 82 b8 3d a3 ac bc 43 1f 8d bd
       -0.017840857 -6.241834e-05 -0.021073932 -0.06890728

fc4.bias f4 [26]
000000 29 29 e9 3c fd f6 6e 3d 85 18 a7 3c ed 9b 55 3d
       0.02846201 0.058341015 0.020397434 0.052150656
000010 07 8c bf 3c fa 01 59 3d 54 cc b6 bc b6 95 f3 3c
       0.0233822 0.0529804 -0.022314228 0.029734474
000020 11 d0 e1 bb 4d 34 08 3d 6b 65 6d bd 13 a6 3b 3d
       -0.0068912585 0.033253003 -0.057958048 0.045812678
000030 0d 9f 71 bd c3 97 a6 3c 68 1e 32 3d 1a 2d 6f bc
       -0.058989573 0.020336038 0.04348603 -0.014598155
000040 42 05 e3 bc 09 f7 5b 3d 42 e1 28 bc e8 ca 13 39
       -0.027712468 0.053702388 -0.010307612 0.00014094601
000050 28 90 52 bb 33 6a 48 bd 02 81 1e 3d 68 fe b2 3c
       -0.003212938 -0.048929404 0.03869725 0.021849826
000060 9d fd 3b 3d ac 7d 0b bd
       0.04589616 -0.034055397
